Models/best_model-F1-CNNGRU.pt (torch, 232169 bytes, 17 tensors)

weight f4 [84, 19, 3]
0	0xbd9f8fc9	-0.07791097
1	0xbcb8826b	-0.022523126
2	0xbdee9975	-0.11650363
3	0x3e6055bf	0.2190771
4	0x3dd7634a	0.10516985
5	0x3df1501d	0.117828585
6	0x3b008fb4	0.0019616904
7	0x3d9fba37	0.077991895
8	0x3de2c72e	0.11073147
9	0xbe48a034	-0.19592363
10	0xbcbea5ac	-0.023272358
11	0xbc84e03d	-0.016220206
12	0x3cdcb32c	0.026940905
13	0xbd061515	-0.03273495
14	0xba9b85f3	-0.0011865482
15	0x3c9822fe	0.018571373
16	0x3db4713f	0.088106625
17	0x3ce1e003	0.027572637
18	0x3d464255	0.048403103
19	0x3db32908	0.087480605
20	0x3b97cf81	0.0046328907
21	0x3cb1a3c6	0.021684539
22	0xbd12968b	-0.0357881
23	0x3d9369b0	0.07197893
24	0xbc79c250	-0.015244082
25	0xbc0417a7	-0.00806228
26	0xbbaacba1	-0.0052122627
27	0x3a74f898	0.00093449047
28	0x3d796fd5	0.060897667
29	0xbd96a645	-0.07355932
30	0x3d8c9fa4	0.068663865
31	0xbdc47c23	-0.0959399
32	0x3d4cd33b	0.050006133
33	0x3d956399	0.07294387
34	0x3cefb639	0.029261695
35	0x3de7a4c9	0.11310727
36	0x3d9e99b1	0.07744158
37	0x3e11007f	0.14160345
38	0x3d953c40	0.072868824
39	0x3cc909e5	0.02454085
40	0x3d9c5931	0.076341994
41	0x3ce9271b	0.02846103
42	0xbd9e3073	-0.07724085
43	0xbcfd45e7	-0.030917121
44	0xbd7d2641	-0.06180406
45	0xbe893fa9	-0.2680638
46	0x3d6a4052	0.057190247
47	0xbe03a97a	-0.12857619
48	0x3e145c5d	0.14488359
49	0xbdb78853	-0.08961549
50	0xbc68496f	-0.014177664
51	0x3dca2de7	0.098720364
52	0xbcbdcbfb	-0.023168555
53	0x3e16a5a0	0.14711618
54	0x3dff1111	0.12454427
55	0x3dab0d91	0.08352197
56	0x3dc4a45d	0.09601662
57	0xbd6615d2	-0.056173153
58	0x3c3bde0f	0.011466517
59	0xbe2c7237	-0.16840445
60	0x3d778e38	0.060438365
61	0xbc0165c2	-0.007897796
62	0x3da4e4bd	0.08051441
63	0xbe020e88	-0.12700856
64	0xbd3634e2	-0.044484027
65	0xbd102406	-0.035190605
66	0x3e3eff94	0.18652183
67	0x3b46d458	0.003033897
68	0xbbda046e	-0.00665336
69	0xbbf993e3	-0.0076165064
70	0x3e1577a5	0.14596422
71	0x3dbae01b	0.09124776
72	0x3c97885c	0.018497638
73	0xbd82080a	-0.063491896
74	0xbd7fe485	-0.062473793
75	0xbdc81798	-0.09770125
76	0xbda19aae	-0.07890831
77	0x3d152937	0.03641626
78	0x3cfd1ad5	0.030896584
79	0x3d934853	0.07191529
80	0xbc8025f1	-0.015643092
81	0xbd9baa20	-0.07600808
82	0x3d515487	0.051106002
83	0xbd3fd7ef	-0.04683679
84	0x3d33ec48	0.043926507
85	0xbd282b6d	-0.04105704
86	0x3d3a407a	0.045471646
87	0xbe0438d8	-0.12912309
88	0xbdcac983	-0.099017166
89	0xbc338ca7	-0.010958827
90	0x3d860cf8	0.06545442
91	0x3c6c7da7	0.014434255
92	0x3ddc35b6	0.10752432
93	0x3dcc16d8	0.099652946
94	0xbd15860b	-0.036504786
95	0xbc9314ed	-0.017954314
96	0x3d21fa28	0.03954521
97	0xbdaebde8	-0.085323155
98	0xbdb23aed	-0.087026455
99	0xbdb19086	-0.08670144
100	0xbd517f09	-0.05114654
101	0x3cbb6080	0.022873163
102	0x3e184afa	0.14872351
103	0xbdbadc0d	-0.091240026
104	0x3d4bff21	0.049803857
105	0xbe49f133	-0.19720916
106	0xbc85eefa	-0.016349304
107	0xbdf4f898	-0.11961478
108	0xbe5574da	-0.20845357
109	0xbdbff446	-0.09372763
110	0x3e3216fd	0.17391582
111	0xbd44e785	-0.048072357
112	0x3c0ad660	0.008473963
113	0xbe325d12	-0.17418316
114	0x3c342e61	0.010997386
115	0x3d343c53	0.044002842
116	0x3dce99b7	0.100879125
117	0xbd97a986	-0.07405381
118	0xbccb771c	-0.02483707
119	0xbda1104f	-0.07864439
120	0xbba00ef1	-0.0048845937
121	0xbc3a597b	-0.011373873
122	0x3d377922	0.044793256
123	0xbc8b7788	-0.01702477
124	0xbd02f93a	-0.031975962
125	0xbc89ca04	-0.016819961
126	0xbc5699f8	-0.013098232
127	0xbda000c5	-0.07812647
128	0x3de08f47	0.10964828
129	0xbd81caf1	-0.06337536
130	0x3b9bd2e6	0.0047553657
131	0xbd7d55b4	-0.06184931
132	0xbdcffccd	-0.1015564
133	0x3d722a05	0.059122104
134	0xbd097f43	-0.03356863
135	0xbc732227	-0.0148396855
136	0xbd499b35	-0.049220283
137	0xbd51a5e5	-0.0511836
138	0x3c6778cf	0.014127924
139	0xbd451cb2	-0.04812307
140	0x3cc1fdae	0.023680534
141	0xbdb53d33	-0.088495634
142	0x3dad8b3f	0.08473825
143	0xbd9dffe1	-0.07714821
144	0x3cb67df9	0.022276865
145	0x3de36acb	0.111043535
146	0x3e0ce92b	0.13760822
147	0x3d838ee8	0.064237416
148	0x3d9a2731	0.075270064
149	0xbdd96341	-0.10614634
150	0x3c1dfedf	0.009643286
151	0xbd728bf7	-0.059215512
152	0xbcdbcd99	-0.026831435
153	0xbceb3ea8	-0.0287164
154	0x3e15df98	0.14636075
155	0xbcdeac33	-0.02718172
156	0x3d6bf827	0.057609703
157	0x3d18daa5	0.03731789
158	0x3d0cd95d	0.03438698
159	0xbe494eb3	-0.19658928
160	0x3eab7356	0.33486432
161	0xbe19c3a7	-0.15016042
162	0x3dfb9a3d	0.12285278
163	0xbe8a0c1f	-0.26962373
164	0x3e4be9e5	0.19913442
165	0x3d2773be	0.040881865
166	0xbe48a346	-0.19593534
167	0x3e0817df	0.13290356
168	0x3d85f402	0.065406814
169	0xbe80ab1f	-0.25130555
170	0x3dc37fae	0.09545837
171	0xbcacc5d7	-0.021090431
172	0x3d7d1f87	0.061797645
173	0xbd5b060a	-0.053472556
174	0x3d1bde75	0.03805395
175	0x3d3ad353	0.04561169
176	0xbd7c6bda	-0.061626293
177	0xbdfec46c	-0.12439808
178	0xbd77174b	-0.06032495
179	0xbe6f97f2	-0.23397806
180	0xbd3f67ae	-0.046729736
181	0x3ca03d55	0.019560495
182	0x3c541240	0.012943804
183	0xbdfe1313	-0.12405982
184	0xbc965edd	-0.018355781
185	0xbc5c365c	-0.013440695
186	0x3c39fd31	0.011351869
187	0xbd5c958c	-0.053853557
188	0xbd7da0d8	-0.06192097
189	0xbd2d3584	-0.042287365
190	0xbdb9f94c	-0.09080753
191	0xbe066ad9	-0.13126697
192	0x3d876350	0.06610739
193	0x3db61ec6	0.08892588
194	0xbd5aed86	-0.053449176
195	0xbce0b1f8	-0.027428612
196	0xbc0bc98d	-0.00853194
197	0xbd05dc4c	-0.032680795
198	0x3d0d299b	0.034463506
199	0x3cf0b3e9	0.029382663
200	0xbe05b812	-0.13058499
201	0x3e25b527	0.16182385
202	0x3e9f5a6d	0.31123677
203	0x3e7b1c6d	0.24522562
204	0x3b055050	0.002034206
205	0xbd8417a9	-0.06449825
206	0xbd86491d	-0.06556914
207	0xbe189867	-0.14901887
208	0xbda4adbf	-0.08040952
209	0xba0429dc	-0.0005041638
210	0x3da38958	0.079851806
211	0x3d71f2f4	0.05906959
212	0xbdcc8d8e	-0.09987937
213	0xbd10cb34	-0.03535004
214	0x3c943174	0.018089987
215	0x3e1d5801	0.15365602
216	0xbd5f586e	-0.054527692
217	0xbd6661a0	-0.056245446
218	0x3cdd035e	0.026979145
219	0xbdba09f3	-0.09083929
220	0xbdf89608	-0.12137991
221	0x3b016a33	0.0019747138
222	0x3d8087cd	0.06275902
223	0x3d15f45a	0.036609985
224	0xbca9d780	-0.020732641
225	0x3e354960	0.17703772
226	0x3e42b8b2	0.19015768
227	0x3e0a1776	0.13485512
228	0xbe577592	-0.21040943
229	0xbe6f8ac5	-0.2339278
230	0xbe6245b7	-0.22096907
231	0x3dcb3551	0.09922279
232	0x3de9672f	0.11396634
233	0x3e06b5ec	0.13155335
234	0xbb145980	-0.0022636354
235	0x3c592bf1	0.013255105
236	0x3d132f45	0.03593375
237	0xbd745dfd	-0.059659947
238	0xbd44ace7	-0.048016455
239	0xbd2efc93	-0.042721342
240	0x3dcf3bc1	0.10118819
241	0x3c7433ff	0.014904975
242	0x3d3f1a6b	0.046656054
243	0xbd98d176	-0.074618265
244	0xbd1db421	-0.038501862
245	0xbd89f46e	-0.067360744
246	0xbdba0727	-0.090833955
247	0xbc1be6d8	-0.009515487
248	0xbd7f3a0b	-0.062311213
249	0x3d0a9327	0.03383174
250	0xbcf1f700	-0.029536724
251	0xbd84a27a	-0.064763024
252	0xbcc62c7f	-0.02419114
253	0xbd7ff2eb	-0.062487524
254	0xbd4a3424	-0.04936613
255	0xbdac630a	-0.08417328

bias f4 [84]
0	0xb3821d9f	-6.058985e-08
1	0xb3f451b4	-1.1376997e-07
2	0x36cfe805	6.1960914e-06
3	0x3603d916	1.9646882e-06
4	0x35188e8a	5.6831834e-07
5	0x33e5c393	1.0699218e-07
6	0x36040aca	1.9675813e-06
7	0x338bf069	6.516422e-08
8	0xb434e762	-1.6847983e-07
9	0x33cd984c	9.573759e-08
10	0xb44c43b8	-1.9023616e-07
11	0x35591313	8.0866556e-07
12	0x34b74b8e	3.414138e-07
13	0xb4917b78	-2.709819e-07
14	0xb3e93902	-1.0860278e-07
15	0x3406bb77	1.2547922e-07
16	0xb389dc98	-6.4196854e-08
17	0x34add797	3.2380623e-07
18	0x33a56d46	7.703288e-08
19	0xb50064ba	-4.783029e-07
20	0xb556d0a1	-8.002481e-07
21	0x327a9c7b	1.4587495e-08
22	0x333a2ed8	4.3349104e-08
23	0x334dc146	4.7906063e-08
24	0x3527c4ac	6.2498543e-07
25	0x36380088	2.7418446e-06
26	0x344e6eb8	1.9225524e-07
27	0xb5eab6df	-1.7487581e-06
28	0xb1fbbd7a	-7.3266024e-09
29	0xb435a789	-1.6917888e-07
30	0xb545285c	-7.344695e-07
31	0x335f06f5	5.192756e-08
32	0xb4429487	-1.8121692e-07
33	0x3647d2bd	2.9775977e-06
34	0x32916556	1.6926304e-08
35	0xb4252e22	-1.5383606e-07
36	0x3400c890	1.1993893e-07
37	0xb58bd149	-1.0417217e-06
38	0x34ab8348	3.1946752e-07
39	0x3320e6c2	3.7462776e-08
40	0xb4d57fab	-3.9767232e-07
41	0xb3826e1d	-6.073626e-08
42	0x30cb61f1	1.4798031e-09
43	0x32a004ff	1.8628723e-08
44	0x34a8d336	3.1446115e-07
45	0xb2993706	-1.7836566e-08
46	0x345888e7	2.0166372e-07
47	0x354cda33	7.6313444e-07
48	0xb31aa52a	-3.6006135e-08
49	0xb4c24755	-3.6187217e-07
50	0xb6a01925	-4.771299e-06
51	0xb36d2b10	-5.5220028e-08
52	0x346a9c16	2.1849732e-07
53	0x3430f2d8	1.6479623e-07
54	0xb4087b87	-1.2710926e-07
55	0x3478380c	2.311719e-07
56	0x34dbf655	4.097116e-07
57	0xb30ebd29	-3.323399e-08
58	0x34698a7b	2.1750195e-07
59	0xb4b029c8	-3.2812954e-07
60	0x343265fc	1.6614644e-07
61	0x3396c0db	7.0199995e-08
62	0xb520d7fa	-5.991893e-07
63	0xb4498b11	-1.8770176e-07
64	0xb36a95d1	-5.4618628e-08
65	0x3425dfb0	1.54482e-07
66	0x351cb68d	5.8380175e-07
67	0xb2b7f40f	-2.1414989e-08
68	0xb41209c7	-1.3600867e-07
69	0xb49a9b06	-2.879753e-07
70	0xb554f5d6	-7.933389e-07
71	0x3531ac7a	6.6188625e-07
72	0xb5201d92	-5.9647675e-07
73	0xb5917918	-1.0838585e-06
74	0x350856e5	5.0790396e-07
75	0x3590718b	1.0761881e-06
76	0xb3029ba0	-3.0409524e-08
77	0x360e1cf2	2.1176497e-06
78	0x32839d48	1.532193e-08
79	0x336083f3	5.227407e-08
80	0x3343e786	4.5612545e-08
81	0x3509fae1	5.1401554e-07
82	0x34f22555	4.5103175e-07
83	0x33a249a2	7.5571066e-08

weight f4 [84]
0	0x3f25caaa	0.64762366
1	0x3f27e815	0.65588504
2	0x3f545ff1	0.82958895
3	0x3f5d1fb6	0.8637651
4	0x3f0eb956	0.5575155
5	0x3f0593a7	0.52178425
6	0x3f49f058	0.7888236
7	0x3efe494c	0.49665296
8	0x3f72ee53	0.94894904
9	0x3f090954	0.5352986
10	0x3f294940	0.66127396
11	0x3f28b9b4	0.6590836
12	0x3f581fa5	0.84423286
13	0x3f3709fa	0.714996
14	0x3eff3187	0.49842474
15	0x3f22d8ac	0.63611865
16	0x3ef64f85	0.48107544
17	0x3f08806c	0.53320956
18	0x3f199562	0.59993565
19	0x3eebcbfc	0.46054065
20	0x3f053da1	0.52047163
21	0x3f4a0bc7	0.7892422
22	0x3f19f6c1	0.6014214
23	0x3ef9c6a4	0.48784363
24	0x3f6631f1	0.89919955
25	0x3f221b49	0.63322884
26	0x3f038780	0.5137863
27	0x3f4817af	0.7816114
28	0x3f45ca21	0.7726155
29	0x3ee00bab	0.43758902
30	0x3f4c1350	0.7971697
31	0x3eda0faf	0.4259009
32	0x3f2d9b74	0.6781533
33	0x3f810240	1.0078812
34	0x3ef1721d	0.47157374
35	0x3f3b54f8	0.7317653
36	0x3f1f1b6c	0.6215122
37	0x3f0ef277	0.5583872
38	0x3f4bbaea	0.79582083
39	0x3edc6a16	0.43049687
40	0x3f32d9d3	0.69863623
41	0x3e99fadc	0.30074203
42	0x3f09f139	0.538837
43	0x3f133375	0.5750039
44	0x3f7afb8f	0.980401
45	0x3ef6201d	0.48071375
46	0x3f24e2c4	0.64408517
47	0x3f09bd9f	0.53804964
48	0x3f0b80f1	0.54493624
49	0x3f348329	0.70512635
50	0x3f87765c	1.0582995
51	0x3efc49a3	0.4927493
52	0x3f26fe1f	0.6523151
53	0x3f0b2bc0	0.5436363
54	0x3edf6f66	0.43639678
55	0x3f4de1a2	0.80422413
56	0x3f142d38	0.578815
57	0x3ece1465	0.40249935
58	0x3f332e26	0.6999229
59	0x3f366853	0.71252936
60	0x3ef1d68d	0.47234002
61	0x3f3cb5b7	0.73714775
62	0x3f09196b	0.5355441
63	0x3edcf79e	0.43157667
64	0x3edf2a99	0.43587187
65	0x3ef2283a	0.47296315
66	0x3f1c705b	0.6110894
67	0x3f2f3fd8	0.6845679
68	0x3f04b754	0.51842237
69	0x3f1f357b	0.6219098
70	0x3f4cb67b	0.79965943
71	0x3f3a280c	0.72717357
72	0x3f2493f4	0.6428826
73	0x3f554e92	0.83323014
74	0x3f729d22	0.94771016
75	0x3f39b7e7	0.7254624
76	0x3f16639d	0.5874575
77	0x3f5a5777	0.8528971
78	0x3ee5d9c4	0.44892704
79	0x3ee7ff54	0.45311987
80	0x3eaac451	0.33352903
81	0x3f86dbc4	1.0535817
82	0x3f2212e2	0.6331006
83	0x3f1bb0ea	0.60816824

bias f4 [84]
0	0xbd56ac02	-0.052410133
1	0x3b24219c	0.0025044447
2	0xbd89a915	-0.06721703
3	0xbe2d10a6	-0.16900882
4	0x3d26b49f	0.040699597
5	0xbdf2a7bc	-0.11848399
6	0xbe3f2e36	-0.18669972
7	0xbe33fbac	-0.17576474
8	0xbdca02d0	-0.09863818
9	0xbd88fc2f	-0.06688725
10	0x3cd7d822	0.026348177
11	0x3db1bba5	0.086783685
12	0xbd5a8f09	-0.053359065
13	0xbc3826dc	-0.011239734
14	0xbdbfffcf	-0.093749635
15	0xbcd1fac8	-0.025632277
16	0xbe18354f	-0.14864086
17	0xbcc4e329	-0.0240341
18	0xbdb593ec	-0.088661045
19	0xbe487505	-0.1957589
20	0xbe400148	-0.18750489
21	0xbcfc36cd	-0.03078785
22	0xbdcc9754	-0.09989801
23	0xbdaf058f	-0.08545982
24	0xbe27354a	-0.16328922
25	0xbe0236e4	-0.12716252
26	0xbdf4be91	-0.1195041
27	0xbd0daf7f	-0.034591194
28	0xbe2b463a	-0.16726008
29	0xbe26b47e	-0.1627979
30	0xbd2a16d6	-0.041525684
31	0xbd29326f	-0.041307863
32	0xbcf6c8fe	-0.030125137
33	0xbe060985	-0.13089569
34	0xbd8f8338	-0.0700745
35	0xbdf1d03e	-0.11807297
36	0xbe5e6720	-0.21719027
37	0xbd7c0120	-0.06152451
38	0x3c15459b	0.0091108335
39	0xbd985eae	-0.07439934
40	0xbc820df0	-0.015875787
41	0xbdb00532	-0.08594741
42	0xbe151624	-0.14559227
43	0xbd231dab	-0.039823215
44	0xbdcd0aec	-0.10011849
45	0xbdc01396	-0.09378736
46	0xbe1495ef	-0.1451032
47	0xbe2a0a57	-0.16605507
48	0xbdb20eda	-0.08694239
49	0xbe1a5399	-0.15070952
50	0xbd9cc9f8	-0.0765571
51	0xbe079df7	-0.13243853
52	0xbda0de76	-0.07854931
53	0xbb9088a5	-0.0044108205
54	0xbdc7c705	-0.09754757
55	0xbd8a9187	-0.067660384
56	0xbe3692e7	-0.17829476
57	0xbd4ddbaa	-0.050258316
58	0xbdd467ee	-0.103713855
59	0xbe891940	-0.26777077
60	0xbe3e90b6	-0.1860989
61	0xbddbead2	-0.10738148
62	0xbe255fbd	-0.16149803
63	0xbdcc911c	-0.09988615
64	0xbde715f3	-0.11283483
65	0xbdb59a2c	-0.088672966
66	0xbd16381a	-0.036674596
67	0xbdc6dcb2	-0.09710063
68	0xbde0513c	-0.10952994
69	0xbc11d56d	-0.008900982
70	0xbe22c370	-0.15894866
71	0xbe0234e2	-0.12715486
72	0x3cf6f59a	0.030146409
73	0xbe10a917	-0.14127003
74	0xbb3e153b	-0.0029004354
75	0xbe9304f7	-0.28714725
76	0x3d82cb81	0.063864715
77	0xbda7afbf	-0.08187818
78	0xbda37ba7	-0.07982569
79	0xbdddc0c7	-0.10827785
80	0xbdca6f13	-0.09884467
81	0xbdfec958	-0.12440747
82	0xbe7061af	-0.23474763
83	0xbddd04d5	-0.10791937

running_mean f4 [84]
0	0x3ab8dc5a	0.0014103756
1	0x39d1e9ae	0.0004003769
2	0xb8abd572	-8.193673e-05
3	0x39a26249	0.00030972276
4	0x3b10ee61	0.002211474
5	0x3a90e7d1	0.0011055415
6	0xbb377828	-0.0027995203
7	0x3ac53a68	0.0015047314
8	0xbaf2ac64	-0.0018514511
9	0x3a71b0eb	0.0009219783
10	0x3b4365b0	0.002981525
11	0x3b2e9d09	0.0026643893
12	0x3a265939	0.00063456927
13	0xbb1f0b30	-0.0024268143
14	0xbbae4c27	-0.0053191367
15	0xbaa68be8	-0.001270649
16	0xbac185c5	-0.0014764598
17	0x398ab41c	0.00026455603
18	0x3b20c03b	0.002452864
19	0xbb472536	-0.003038717
20	0x3b269999	0.0025421141
21	0xbb8c6fc1	-0.004285783
22	0x3b3e8117	0.0029068643
23	0xba55a648	-0.0008150083
24	0xbb9954c1	-0.004679293
25	0x3a24dd43	0.0006289074
26	0x3a481fa1	0.00076341076
27	0xbb302e2f	-0.0026882996
28	0xba6b925b	-0.0008986347
29	0x3ba13d2c	0.0049206223
30	0xb7506d7f	-1.242326e-05
31	0xbaa42834	-0.0012524188
32	0x39d96803	0.0004146696
33	0x3aa1fe83	0.0012359176
34	0x3a83e927	0.0010063992
35	0x3b90a14b	0.004413759
36	0xbb372b3a	-0.002794935
37	0xbb12700e	-0.0022344622
38	0x3ba29069	0.0049610627
39	0x3bc73609	0.0060794395
40	0x3be149da	0.006875259
41	0x3a8b85f5	0.0010644781
42	0x3ae5a345	0.0017519972
43	0xbb091ea4	-0.0020922804
44	0xbad60731	-0.0016329048
45	0xbb508b58	-0.0031821337
46	0xbb86e338	-0.004116442
47	0x3a0b990e	0.0005325236
48	0xbae9efd5	-0.0017847965
49	0x3bdee251	0.0068018814
50	0x3a4aa4b7	0.0007730233
51	0xbb029931	-0.0019927735
52	0x3bddb21d	0.0067656175
53	0x39cb85a3	0.00038818744
54	0x39b770c5	0.000349885
55	0xbb199a4b	-0.0023437913
56	0xbaf95769	-0.0019023243
57	0x3a939506	0.0011259622
58	0x3b269042	0.0025415574
59	0xbb376ca6	-0.0027988343
60	0xba024e5b	-0.00049707823
61	0x3b97a18b	0.0046274117
62	0xbb27ae1c	-0.0025585955
63	0x3be5e9e5	0.007016408
64	0x3af183d3	0.0018426127
65	0x3a6e58f7	0.0009092236
66	0xbb993a2a	-0.004676123
67	0xba16f1fc	-0.00057581044
68	0xb901f42c	-0.0001239336
69	0xbac05259	-0.0014672979
70	0xbba2d36b	-0.0049690506
71	0x3b67833d	0.0035326027
72	0x3bb0cdf3	0.005395645
73	0x3a64b825	0.00087249494
74	0x39830265	0.0002498805
75	0xbb6b4361	-0.0035898315
76	0xb8a581d5	-7.891996e-05
77	0xba80b477	-0.0009819408
78	0xbb84190b	-0.0040313057
79	0xbad046db	-0.0015890257
80	0xb9db6f12	-0.0004185369
81	0xba5c7c37	-0.00084108434
82	0xbb14c79a	-0.002270198
83	0xba2ea3f9	-0.0006662007

running_var f4 [84]
0	0x3fa1f759	1.265361
1	0x3f5ca4aa	0.8618876
2	0x3f0251c8	0.5090604
3	0x3f7b9b73	0.9828407
4	0x3f39377d	0.72350293
5	0x3f3681ff	0.7129211
6	0x4004c6c8	2.0746326
7	0x3f4a0031	0.7890654
8	0x3fa39624	1.2780194
9	0x3f5f0b80	0.8712692
10	0x3f346f5c	0.7048242
11	0x3f1a3c29	0.6024805
12	0x3f7b7979	0.9823223
13	0x3f2eab65	0.6823028
14	0x3f1b2541	0.6060372
15	0x3f2eeaf1	0.6832724
16	0x3f92c93a	1.146766
17	0x3f37d669	0.7181154
18	0x3f6ed708	0.9329686
19	0x3f498890	0.78724
20	0x3f460983	0.77358264
21	0x3f749ca3	0.9555151
22	0x3fc06bd4	1.5032907
23	0x3f1a164d	0.6019028
24	0x3fd8283b	1.6887277
25	0x3f36a293	0.7134182
26	0x3f24c23c	0.6435888
27	0x3f564c87	0.8371052
28	0x3ff7063b	1.9298776
29	0x3f293e55	0.66110736
30	0x3f4ef7af	0.80846685
31	0x3f52fd0d	0.82417375
32	0x3f363d36	0.7118715
33	0x3e87ed1b	0.26548085
34	0x3f25887f	0.646614
35	0x3f8d88b0	1.1057339
36	0x3fb2a0de	1.3955343
37	0x3f742809	0.9537359
38	0x3f3c1223	0.73465174
39	0x3fb5e08d	1.4209152
40	0x3faaf4e0	1.335598
41	0x3eca5963	0.39521322
42	0x3f46adec	0.77609134
43	0x3f5dc0a8	0.86622095
44	0x3fa46048	1.2841883
45	0x3f4312a3	0.7620031
46	0x3fb18e32	1.387152
47	0x3f58649e	0.8452853
48	0x3f9c3e0c	1.2206435
49	0x3fd82ad8	1.6888075
50	0x3f6b921f	0.9201984
51	0x3f2a3cdb	0.6649911
52	0x3fb00bff	1.3753661
53	0x3f5e0c68	0.8673768
54	0x3faef103	1.3667301
55	0x3febd508	1.8424387
56	0x3fbb258d	1.4620835
57	0x3f0b4cd3	0.544141
58	0x3f350089	0.7070394
59	0x3f83439d	1.0255009
60	0x3f62b157	0.8855185
61	0x3fcd25c1	1.6027147
62	0x3f96aa76	1.177077
63	0x3faaffc5	1.3359305
64	0x3ebcaa0e	0.3684849
65	0x3f38148b	0.71906346
66	0x3f833c37	1.0252751
67	0x3f470bc6	0.7775234
68	0x3f7b6a7b	0.9820935
69	0x3f779f73	0.96727675
70	0x3fcf1395	1.6177851
71	0x3fa481b0	1.2852077
72	0x40306259	2.7560027
73	0x4018e24e	2.3888125
74	0x3f07ad93	0.5299923
75	0x3f3932a5	0.723429
76	0x3f7c8cff	0.9865264
77	0x3fb77e36	1.4335392
78	0x3eee03ce	0.46487278
79	0x3f34311f	0.7038745
80	0x3eb68350	0.35647058
81	0x3f951be5	1.1649138
82	0x3fba4b6d	1.4554268
83	0x3f361167	0.71120304

weight f4 [84, 84, 3]
0	0x3d5943f3	0.053043317
1	0xbc819a1f	-0.015820561
2	0xbdbf02d0	-0.09326708
3	0xbdbf62d9	-0.093450256
4	0xbd2d9cbd	-0.042385805
5	0x3bcec7bd	0.0063104318
6	0xbd3038c5	-0.04302289
7	0xbcc62d1f	-0.024191437
8	0x3ca66ee9	0.020316558
9	0xb9c090de	-0.00036729028
10	0x3c1dc2f9	0.009629005
11	0xbda89c0e	-0.0823289
12	0xbcac399a	-0.02102356
13	0xbcd37da9	-0.025816755
14	0xbc35428a	-0.011063227
15	0xbd3487a0	-0.044074655
16	0xbcc827ce	-0.024433043
17	0xbd16189e	-0.03664457
18	0x3db00372	0.08594407
19	0x3d6d4919	0.05793104
20	0xbca433b5	-0.020044187
21	0xbd6ee5a5	-0.058324475
22	0xbd19a1e5	-0.03750791
23	0xbd017d80	-0.031613827
24	0xbdd7c906	-0.10536389
25	0xbdc0f387	-0.09421449
26	0xbdd08b4b	-0.10182818
27	0xbd1786e8	-0.03699389
28	0xbca18e34	-0.019721128
29	0x39ac71fe	0.00032891327
30	0xbc1f1e3e	-0.0097118
31	0x3c6478e2	0.013944836
32	0xba4956c2	-0.00076804694
33	0xbc1d4cd0	-0.009600833
34	0x3bb69262	0.0055716494
35	0x3d32e184	0.0436721
36	0x3d1cbdaf	0.038266834
37	0xbcd29243	-0.025704509
38	0xbcd35db7	-0.025801523
39	0xbdbf8cc0	-0.09353018
40	0xbd93d716	-0.07218759
41	0xbc70c655	-0.014695724
42	0x3bc74e6f	0.006082348
43	0x3c24e539	0.010064417
44	0xbbeed994	-0.007289121
45	0xbe0ca5b1	-0.13735081
46	0xbd28e126	-0.041230343
47	0xbd8eb70b	-0.069685064
48	0xbca67a99	-0.020322131
49	0xbd6b80f7	-0.057496037
50	0xbca40e00	-0.020026207
51	0xbd0c592a	-0.03426472
52	0xbd0dc0f4	-0.034607843
53	0xbccc0f48	-0.02490963
54	0xbdb3531f	-0.087560885
55	0xbd82e187	-0.06390672
56	0xbccc5951	-0.024944933
57	0xbd299c3a	-0.041408755
58	0xbce07f11	-0.02740434
59	0xbc7fa765	-0.015603875
60	0x3d0d8e3b	0.03455947
61	0x3da32035	0.079651274
62	0x3cf66e6d	0.030081952
63	0xbda9bc92	-0.0828792
64	0xbd2551ef	-0.04036134
65	0xbc405b66	-0.011740541
66	0xbdf39f06	-0.11895566
67	0xbd9123a0	-0.07086873
68	0xbd91b01b	-0.071136676
69	0xbd3119e8	-0.043237597
70	0xbd16b908	-0.036797553
71	0xbbbd5853	-0.0057783513
72	0x3e43c6c7	0.19118796
73	0x3e1c0d11	0.1523936
74	0x3e3079ed	0.17234011
75	0x3d65c5eb	0.056096952
76	0x3c2e5298	0.010639809
77	0xbcfe3afa	-0.031033982
78	0x3d1758e4	0.036950007
79	0x3d10c6bd	0.03534578
80	0x3c1c6ab5	0.009546925
81	0xbbdd8310	-0.0067600086
82	0xbd129ffb	-0.0357971
83	0xbd1649d3	-0.036691498
84	0x3e15f1a3	0.14642958
85	0x3da1c04a	0.07898004
86	0xbbefd84e	-0.0073194867
87	0xbd1892a0	-0.037249207
88	0xbc9cf29b	-0.019158652
89	0xbcbaf885	-0.022823581
90	0xbe1904de	-0.14943263
91	0xbd2d1216	-0.042253576
92	0x3c4a098f	0.0123313805
93	0xbd95d577	-0.07316106
94	0xbd354c11	-0.044261996
95	0x3c4e28ea	0.012582997
96	0xbd328c5e	-0.043590896
97	0xbc98e1e4	-0.0186624
98	0xbceb66ff	-0.028735636
99	0xbce32115	-0.027725736
100	0x3b2458d3	0.0025077357
101	0xbd56ecfd	-0.052472103
102	0xbd1636a8	-0.036673218
103	0x3c521a59	0.012823665
104	0x3d128ab3	0.035776805
105	0x3dfa1a45	0.12212042
106	0x3cbe91ed	0.023262942
107	0x3d08fcca	0.033444203
108	0x397d3b43	0.00024150037
109	0x3bc0425e	0.0058672866
110	0xbda1cb43	-0.07900097
111	0xbe06a590	-0.13149095
112	0xbdec2e15	-0.11532227
113	0xbd7684d9	-0.060185287
114	0xbbb273e8	-0.005445946
115	0xbda9d14a	-0.08291872
116	0xbd9bc978	-0.076067865
117	0xbd410fb0	-0.0471341
118	0xbd465462	-0.048420317
119	0xba886b09	-0.0010407876
120	0x3d6d76bd	0.057974566
121	0x3be473c2	0.006971807
122	0xbd28c690	-0.04120499
123	0xbc83ac19	-0.016073273
124	0xbd22cc85	-0.039745826
125	0xbc291dd8	-0.010322057
126	0x3b8653a1	0.004099325
127	0x3d03e4d0	0.032200634
128	0x3d7f2ded	0.062299658
129	0xbd986cf7	-0.074426584
130	0xbd04f018	-0.032455534
131	0xbc5c3bcd	-0.013441992
132	0x3e05e091	0.13073947
133	0x3d3b29ba	0.04569409
134	0x3d022dd0	0.03178197
135	0xbd52ea3e	-0.051492922
136	0xbd6625f9	-0.056188557
137	0xbd068278	-0.03283927
138	0x3c78d816	0.015188238
139	0xbcad26f5	-0.02113674
140	0x3b582b83	0.003298492
141	0xbd274403	-0.040836345
142	0xbcc27312	-0.02373651
143	0xbc27774c	-0.010221314
144	0x3d9206dd	0.07130215
145	0x3d842f8d	0.06454382
146	0x3db78708	0.08961302
147	0x3d42abc2	0.047527082
148	0x3d93ba01	0.07213212
149	0x3d1b15e9	0.037862692
150	0x3dbb7d12	0.09154715
151	0x3df720a2	0.12066771
152	0x3e114573	0.14186649
153	0xbcee6a65	-0.029103467
154	0xbcb43586	-0.021998178
155	0x3b3abd51	0.002849419
156	0x3d86cc81	0.06581975
157	0x3d1bc272	0.038027234
158	0xbc9e6914	-0.019337215
159	0xbc497de9	-0.012298086
160	0xbc097f65	-0.00839219
161	0xb91c0568	-0.00014879333
162	0xbdcaba4f	-0.09898817
163	0xbd153118	-0.036423773
164	0xbd4233c4	-0.04741265
165	0x3dd76de7	0.10519009
166	0xbc88ca22	-0.016697947
167	0xbd61c30d	-0.055117656
168	0x3cdb6647	0.026782168
169	0x3d0bf4cc	0.034169003
170	0xbd4667b0	-0.048438728
171	0xbce1d93f	-0.027569411
172	0xbc9455c0	-0.018107295
173	0x3c1b9105	0.009495025
174	0xbc8b50c9	-0.017006295
175	0xbcc24131	-0.023712726
176	0xbcbf4cda	-0.023352075
177	0x3e0001dd	0.12500711
178	0x3d73d0ba	0.05952523
179	0x3b2f2c39	0.002672924
180	0x3e03208d	0.12805386
181	0x3dd885b7	0.10572379
182	0x3d68338d	0.056689788
183	0xbcba66f0	-0.022754163
184	0xbd38eea6	-0.045149468
185	0xbd64b240	-0.055834055
186	0x3cc31800	0.023815155
187	0x3c069916	0.0082152095
188	0xbb44b3c4	-0.0030014375
189	0x3d795383	0.06087066
190	0x3cdaea4f	0.026723055
191	0x3d9b9c0b	0.07598122
192	0xbd2d70f7	-0.04234406
193	0x3bf0c698	0.007347893
194	0x3c47efa7	0.012203134
195	0xbd796732	-0.06088943
196	0xbca592f7	-0.02021168
197	0xbbf90acb	-0.0076001636
198	0xbd2e62f3	-0.042574834
199	0x3c9abc7a	0.0188887
200	0x3d9978de	0.07493757
201	0x3c3426e1	0.010995598
202	0x3c104f57	0.008807979
203	0xbc9b36be	-0.018947002
204	0xbd3154cc	-0.04329376
205	0xbcae7af7	-0.021298869
206	0xbc993ba9	-0.018705206
207	0xbda58bb7	-0.08083289
208	0xbd86331b	-0.06552716
209	0xbd884cae	-0.066552505
210	0xbd0d9908	-0.03456977
211	0xbd0ecb79	-0.034862015
212	0xbd58ee4f	-0.052961644
213	0xbbe49d2a	-0.006976743
214	0xbbe45d03	-0.0069690957
215	0x3caf74c1	0.021417977
216	0x3bf0d00d	0.0073490203
217	0xbca012f3	-0.019540286
218	0x3c9151cf	0.017739205
219	0xbd376370	-0.044772565
220	0xbc51879c	-0.012788679
221	0xbd3dbb83	-0.046321403
222	0xbde2bdf5	-0.11071388
223	0xbd2dedf6	-0.042463265
224	0xbd4b86d1	-0.049689118
225	0xbdf24828	-0.11830169
226	0xbd9c1cbc	-0.07622668
227	0xbdcba7cc	-0.09944114
228	0xbd8183d9	-0.06323976
229	0xbc77a242	-0.015114369
230	0xbb2279cf	-0.0024791842
231	0x3e3797a1	0.17928936
232	0x3e103f2e	0.14086601
233	0x3dc0518b	0.09390553
234	0xbd35cb09	-0.044383083
235	0xbceb1162	-0.028694812
236	0xbd0af5c3	-0.033925783
237	0xbd55cdaa	-0.05219809
238	0xbd49042e	-0.04907625
239	0xbccf8294	-0.02533082
240	0x3d2f4880	0.04279375
241	0x3d3f2b62	0.046672232
242	0x3d63b6a6	0.05559411
243	0x3df0495c	0.11732742
244	0x3d9715c8	0.07377201
245	0x3d3f1bca	0.04665736
246	0xbe48a1c5	-0.1959296
247	0xbe20ee7e	-0.15715978
248	0xbdfc88e1	-0.12330795
249	0xbd210368	-0.03930989
250	0x3caa13f7	0.020761473
251	0x3d860b61	0.06545139
252	0x3c1d22ad	0.009590787
253	0xbd136b33	-0.035990905
254	0x3c0fee7f	0.008784889
255	0x3d581f09	0.052763972

bias f4 [84]
0	0xb314aaef	-3.46144e-08
1	0xb4cc5511	-3.8059855e-07
2	0x3482fea7	2.439967e-07
3	0x36035d02	1.9574659e-06
4	0xb53eab53	-7.1029825e-07
5	0x35acbee1	1.2870552e-06
6	0xb4e949bf	-4.345329e-07
7	0x35a08398	1.1959228e-06
8	0xb3deccdd	-1.0374945e-07
9	0xb4bf1f15	-3.5599138e-07
10	0xb4c354da	-3.6383318e-07
11	0xb452caf9	-1.9631615e-07
12	0xb4317716	-1.6527733e-07
13	0x36055778	1.9869458e-06
14	0x35bd91fb	1.4124083e-06
15	0x35556337	7.949306e-07
16	0x3476e46d	2.2993636e-07
17	0x3446c307	1.8511138e-07
18	0xb3e1445b	-1.0489813e-07
19	0x32aea03e	2.0329136e-08
20	0x321186e4	8.470781e-09
21	0x33cff1aa	9.683147e-08
22	0x3207ffa7	7.916163e-09
23	0x34befcb4	3.5574124e-07
24	0x33f79492	1.15288586e-07
25	0x352c69d3	6.422899e-07
26	0xb2f4d5d9	-2.8502585e-08
27	0xb4ad035a	-3.22262e-07
28	0x3416528c	1.3999869e-07
29	0x3477f352	2.3092187e-07
30	0x33e2ca60	1.0560757e-07
31	0x351ac244	5.7652164e-07
32	0x35dd36ca	1.6481729e-06
33	0xb5afe4c6	-1.3105098e-06
34	0x34322a65	1.6592965e-07
35	0x34914cad	2.7064144e-07
36	0xb2a42ce5	-1.9112528e-08
37	0x34188be8	1.4207001e-07
38	0x3484c01a	2.4726688e-07
39	0xb4d60f9c	-3.9871964e-07
40	0x363e4f80	2.8358481e-06
41	0xb501cce9	-4.835443e-07
42	0x338664ed	6.2582195e-08
43	0xb5d6a442	-1.5992048e-06
44	0xb215b687	-8.714443e-09
45	0xb44c2cb8	-1.9015249e-07
46	0xb4080bc1	-1.2670263e-07
47	0xb3984638	-7.090824e-08
48	0xb2f4360e	-2.842992e-08
49	0x342e325b	1.6223332e-07
50	0xb5aafb82	-1.2739185e-06
51	0xb1a1bc83	-4.707148e-09
52	0x3311ace0	3.3917672e-08
53	0xb35365ac	-4.9219736e-08
54	0x3531d1be	6.6242853e-07
55	0xb2014e7b	-7.526633e-09
56	0x344729d5	1.8548538e-07
57	0xb4ee4cad	-4.4386744e-07
58	0x335edf21	5.1891337e-08
59	0xb4519d94	-1.9521968e-07
60	0x351faaeb	5.9480834e-07
61	0x33c64c3c	9.2339604e-08
62	0x32e5a5d2	2.6734515e-08
63	0x3540b28f	7.178541e-07
64	0xb4e3341d	-4.2319962e-07
65	0xb50c8288	-5.234401e-07
66	0xb499e3d8	-2.866425e-07
67	0x343f0ad7	1.7792205e-07
68	0xb289e0ba	-1.6051093e-08
69	0x342cbbea	1.6087111e-07
70	0x33e9d26c	1.08881835e-07
71	0xb5a0df1a	-1.198586e-06
72	0x345d4a2f	2.0609217e-07
73	0x35ba061d	1.3859859e-06
74	0x328e1b06	1.6543265e-08
75	0x3352e18e	4.9099576e-08
76	0x35dae59c	1.6309091e-06
77	0x349a5cb1	2.8752177e-07
78	0xb49c62e2	-2.912921e-07
79	0x331988ea	3.574761e-08
80	0xb391ccb9	-6.7893275e-08
81	0x3501e37b	4.838727e-07
82	0x33b23145	8.297733e-08
83	0xb3ca3d28	-9.417482e-08

weight f4 [84]
0	0x3f63cf64	0.8898833
1	0x3f58ef75	0.8474038
2	0x3f2ebc0b	0.6825568
3	0x3f74720d	0.9548653
4	0x3f62d1fa	0.8860165
5	0x3f4cbcfb	0.7997586
6	0x3f8b9a4e	1.0906465
7	0x3f259375	0.64678127
8	0x3f19e033	0.60107726
9	0x3f21a4cb	0.6314208
10	0x3f6208c4	0.88294625
11	0x3f4d6003	0.8022463
12	0x3f329aa4	0.6976721
13	0x3f80a559	1.005046
14	0x3f78a1ee	0.97122085
15	0x3f447572	0.7674171
16	0x3f1b8cb6	0.6076158
17	0x3f60ebc1	0.8785973
18	0x3f0eafd6	0.55737054
19	0x3f183872	0.5946113
20	0x3eaab833	0.33343658
21	0x3f08ca96	0.5343412
22	0x3f0c5b25	0.54826576
23	0x3f463cc6	0.7743648
24	0x3f2dbb61	0.6786404
25	0x3f53a8f7	0.82679695
26	0x3f1e6b9a	0.61882937
27	0x3f4bef5f	0.79662126
28	0x3f52e4a6	0.8238014
29	0x3eb20b7d	0.3477439
30	0x3f6dde69	0.92917496
31	0x3f5a30c5	0.85230666
32	0x3f5d94b2	0.86555016
33	0x3f781979	0.9691387
34	0x3f2cc9df	0.6749553
35	0x3f3b6521	0.73201185
36	0x3ec6a846	0.38800257
37	0x3f60f199	0.8786865
38	0x3f0c1d20	0.5473194
39	0x3f648cfa	0.89277613
40	0x3f62e905	0.8863681
41	0x3ef2b2aa	0.47401935
42	0x3f4adbe7	0.79241794
43	0x3f8014fc	1.0006404
44	0x3f0dce3e	0.55392826
45	0x3ee5493e	0.44782442
46	0x3f40071b	0.7501084
47	0x3f09fec9	0.53904396
48	0x3f4e1b45	0.8051036
49	0x3f0f087b	0.55872315
50	0x3f6b9070	0.9201727
51	0x3f7d52c2	0.98954403
52	0x3f1a00ce	0.6015748
53	0x3f5f0994	0.8712399
54	0x3f225ed9	0.63425976
55	0x3f54ab46	0.8307384
56	0x3f6958c9	0.911511
57	0x3f8021d5	1.0010325
58	0x3f0e1148	0.5549512
59	0x3ef635b9	0.48087862
60	0x3f05921e	0.5217608
61	0x3f1d0bb0	0.6134596
62	0x3f75d8ae	0.9603375
63	0x3f36094c	0.71107936
64	0x3f24469b	0.64170235
65	0x3f4d74cf	0.8025636
66	0x3f2c668e	0.67343986
67	0x3f3bbcc2	0.73334897
68	0x3f26603e	0.64990604
69	0x3f2012c1	0.62528616
70	0x3f177f1c	0.5917833
71	0x3f370e1c	0.71505904
72	0x3f62db4e	0.8861588
73	0x3f6eb6fb	0.93247956
74	0x3ec4a00f	0.38403365
75	0x3f5d8fe3	0.8654768
76	0x3f83f60b	1.0309461
77	0x3f42e014	0.76123166
78	0x3f58d22a	0.84695685
79	0x3f1a03d1	0.60162073
80	0x3efa60e0	0.48902035
81	0x3f501d3e	0.8129462
82	0x3f24534a	0.6418959
83	0x3ed1e32c	0.4099363

bias f4 [84]
0	0x3bdfc81d	0.0068292753
1	0x3dad36f3	0.08457746
2	0x3d7da582	0.06192542
3	0xbcd7ba15	-0.026333848
4	0x3d27d823	0.04097761
5	0xbcb9bd76	-0.02267335
6	0x3da08e32	0.078396216
7	0x3df512b1	0.11966456
8	0x3d18dacb	0.037318032
9	0x3db364ac	0.08759436
10	0x3cbf5840	0.02335751
11	0x3d908e9c	0.070584506
12	0x3d8f087d	0.06984041
13	0xbcd5ab8a	-0.026082773
14	0x3b8b43a1	0.0042500054
15	0x3d2f06c0	0.042731047
16	0x3c41a067	0.011818028
17	0xbd9120d4	-0.070863396
18	0xbce5e2e6	-0.028062295
19	0xbc1c2753	-0.00953086
20	0xbd5450ca	-0.05183486
21	0x3d4eb0c9	0.050461564
22	0x3d3186a7	0.043341305
23	0x3d5b5a0d	0.053552676
24	0x3c7946cf	0.015214636
25	0x3ad6c520	0.0016385652
26	0x3d51718b	0.051133674
27	0xbd860dab	-0.06545576
28	0x3d126c56	0.03574785
29	0x3afca4d5	0.0019275198
30	0x3bed3de5	0.0072400444
31	0x3cee2658	0.029071018
32	0x3dd93682	0.106061
33	0xbc3d10a5	-0.011539613
34	0xbcc9744e	-0.024591591
35	0x3ceccf86	0.028907549
36	0x3d4f848d	0.05066352
37	0x3ce4c54e	0.027926113
38	0x3cf5ef02	0.030021194
39	0x3d85152c	0.06498179
40	0xbb9c4e0c	-0.004770046
41	0x3d21a1df	0.039461013
42	0xb92a8c49	-0.00016264724
43	0xbd124b8a	-0.03571657
44	0xbacfbc11	-0.0015848895
45	0x3d7bead9	0.061503265
46	0x3db43dd7	0.088008575
47	0x3d10b936	0.03533288
48	0xbd1895a1	-0.037252072
49	0x3bf774f8	0.0075517856
50	0x3d7f2167	0.062287714
51	0xbd4a4e11	-0.049390856
52	0x3d90bb85	0.070670165
53	0xbc1682d3	-0.009186464
54	0x3d244b94	0.04011114
55	0x3d2e9ded	0.04263108
56	0x3af05ba0	0.0018337853
57	0x3c5ccfcd	0.013477278
58	0x3d2aac7f	0.04166841
59	0x3d28ae1f	0.04118168
60	0x3d17beed	0.037047315
61	0x3d4e875e	0.050422065
62	0x3c815cf7	0.0157914
63	0x3b110e91	0.0022133926
64	0xbd3b0050	-0.045654595
65	0x3bb863c1	0.005627126
66	0x3d2167ca	0.03940562
67	0xbc6ca0f7	-0.014442674
68	0x3d6b417c	0.057435498
69	0xbc88de07	-0.016707433
70	0xbd324f80	-0.04353285
71	0xbd253821	-0.04033673
72	0x3d67b3e3	0.056568038
73	0xbc7112df	-0.014713972
74	0xbcd7baab	-0.026334127
75	0x3db575d7	0.08860367
76	0x3d363dd7	0.04449257
77	0x3d6b0ce8	0.057385355
78	0xbc94b641	-0.018153312
79	0xbcd95ca7	-0.026533438
80	0x3bb278bc	0.0054465216
81	0xbd72f4a8	-0.059315354
82	0x3b875abc	0.0041306894
83	0x3c83ff40	0.016112924

running_mean f4 [84]
0	0xbefb17b8	-0.49041533
1	0xbe3fc4df	-0.18727444
2	0xbf0c82f6	-0.5488733
3	0xbd923f4b	-0.071409784
4	0xbe944898	-0.28961635
5	0x3f8b5f58	1.0888472
6	0xbeaf8a0c	-0.3428501
7	0xbf3a17f8	-0.72692823
8	0xbd492e20	-0.049116254
9	0xbddd52c9	-0.10806806
10	0x3f3ca3f5	0.7368768
11	0xbe8ebdaa	-0.27879077
12	0x3e948f01	0.29015353
13	0x3eb12fbe	0.34606737
14	0x3f44f92f	0.76942724
15	0x3e46f509	0.19429411
16	0x3eca6220	0.39527988
17	0x3f886722	1.0656474
18	0x3e6ff79a	0.23434296
19	0x3f0aee66	0.5427002
20	0x3d4aa276	0.04947134
21	0xbf670acf	-0.9025087
22	0xbac1d039	-0.0014786787
23	0x3f1efb35	0.6210206
24	0x3e3a1a74	0.18174154
25	0xbf8233dd	-1.0172077
26	0xbebc6848	-0.3679831
27	0x3f679e79	0.90476185
28	0x3f58bc63	0.84662455
29	0xbf11de4b	-0.5697982
30	0xbefb8488	-0.4912455
31	0x3f5555ff	0.83334345
32	0xbf3ece01	-0.74533087
33	0xbd4d4234	-0.050111964
34	0x3fa2f680	1.2731476
35	0x3f1b6e6a	0.60715353
36	0x3d6b6a47	0.0574744
37	0x3e19e4ce	0.15028688
38	0x3f6f51d4	0.93484235
39	0xbdee3ee1	-0.11633087
40	0x3f10635d	0.56401616
41	0xbe5d65f4	-0.21620923
42	0x3e2be0af	0.16784929
43	0xbe0c0fc5	-0.1367789
44	0x3e4082e2	0.18799928
45	0x3db5e122	0.08880831
46	0x3f3aefb8	0.7302203
47	0x3ef6ade5	0.48179546
48	0x3f515fd4	0.8178685
49	0x3e0c7f31	0.13720395
50	0x3c65c364	0.014023636
51	0x3efb9571	0.49137452
52	0x3f093613	0.53598136
53	0xbec4a112	-0.38404137
54	0x3e46217b	0.1934871
55	0x3e7719b3	0.24130897
56	0x3d97bafd	0.07408712
57	0xbed9ccc2	-0.4253903
58	0x3ec54008	0.38525414
59	0xbe6be869	-0.23037876
60	0xbf269540	-0.6507149
61	0xbd99f6fe	-0.07517813
62	0xbd1eef06	-0.03880217
63	0x3de451aa	0.11148389
64	0x3f9c9e1f	1.2235755
65	0xbf3c77eb	-0.7362048
66	0x3ecedc5d	0.404025
67	0xbeb06dda	-0.3445881
68	0x3e6841d9	0.22681369
69	0x3f875015	1.0571314
70	0x3f5acae0	0.8546581
71	0x3ed8ee5a	0.42369348
72	0xbe4b25e2	-0.1983867
73	0xbd036a74	-0.032083943
74	0x3e1ec0b6	0.15503201
75	0xbf6dfa3b	-0.92959946
76	0x3d6f7b83	0.0584674
77	0x3ef51fec	0.47875917
78	0xbded7a4b	-0.11595591
79	0xbe688ae1	-0.22709228
80	0x3e3003df	0.17188977
81	0x3f06d8e3	0.5267469
82	0x3fa567bf	1.2922286
83	0xbe2bf61e	-0.16793105

running_var f4 [84]
0	0x3f8848bf	1.06472
1	0x3fb48bc0	1.4105148
2	0x3f97be4c	1.1854949
3	0x3fb104dd	1.3829609
4	0x3f7631c6	0.961697
5	0x3f8adafa	1.0848076
6	0x3fd1132d	1.6333977
7	0x3fb7e7ad	1.4367577
8	0x3f15a7b6	0.5845903
9	0x3f687874	0.90808797
10	0x3f8a9d01	1.0829164
11	0x3f513ed0	0.8173647
12	0x3f3843e6	0.71978605
13	0x3fdbdf9c	1.7177615
14	0x3fcf2e94	1.618609
15	0x3f817558	1.0113935
16	0x3f20891a	0.627092
17	0x3f3bcca9	0.7335916
18	0x3ed3a047	0.4133322
19	0x3ec62d2c	0.38706338
20	0x3ef8b933	0.48578796
21	0x3f1b8a0f	0.60757536
22	0x3f17637e	0.5913619
23	0x3f8fc67f	1.1232451
24	0x3f82e1d5	1.0225168
25	0x3f3af862	0.7303525
26	0x3f0c549f	0.5481662
27	0x3f7f74d8	0.99787664
28	0x3fcbafcf	1.5913028
29	0x3f634b37	0.88786644
30	0x3faeca4b	1.3655485
31	0x3fb13c73	1.3846573
32	0x3f9a6962	1.206341
33	0x3f9cf573	1.2262405
34	0x3f153ea0	0.58298683
35	0x3f8427cb	1.0324644
36	0x3ecc550e	0.39908642
37	0x3f48fc94	0.78510404
38	0x3ec85147	0.3912451
39	0x3ef31950	0.4748025
40	0x3f914481	1.1349031
41	0x3f2c1957	0.67226166
42	0x3f91229d	1.1338688
43	0x3febe7ac	1.8430076
44	0x3f07a5f9	0.5298763
45	0x3f06ed24	0.527056
46	0x3f861813	1.0476097
47	0x3f33ef4d	0.7028702
48	0x3f4e2e87	0.80539745
49	0x3f8834ec	1.064115
50	0x3fc64ba5	1.5491835
51	0x3fcebd64	1.6151547
52	0x3f788a55	0.9708608
53	0x3f626ff4	0.88452077
54	0x3f1fcfed	0.62426645
55	0x3f311cd5	0.6918462
56	0x3f7c5994	0.98574185
57	0x3f5b799c	0.85732436
58	0x3f029925	0.5101493
59	0x3f407046	0.75171316
60	0x3f368d6d	0.7130955
61	0x3f24a52b	0.64314526
62	0x3f9272bc	1.1441264
63	0x3f4be7ff	0.7965087
64	0x3f4e94f0	0.8069601
65	0x3f159a7e	0.5843886
66	0x3f929000	1.1450195
67	0x3f350062	0.7070371
68	0x3f517142	0.8181344
69	0x3f346589	0.7046743
70	0x3f1aef1d	0.6052111
71	0x3fa85ce4	1.3153348
72	0x3f2a8a09	0.66616875
73	0x3fa3d8fd	1.2800595
74	0x3ea4617d	0.32105628
75	0x3f79a3b1	0.975154
76	0x3fa71c48	1.3055506
77	0x3f6db3b6	0.9285234
78	0x3f9a4e3f	1.2055129
79	0x3ef34a3b	0.4751757
80	0x3ea36853	0.3191553
81	0x3f234399	0.6377502
82	0x3feb38fa	1.8376763
83	0x3e993469	0.29922798

weight_ih_l0 f4 [192, 84]
0	0xbb24e35d	-0.0025159933
1	0xbcc32918	-0.023823306
2	0xbc140cb2	-0.00903623
3	0x3c8c8a62	0.01715583
4	0x3c08a874	0.008340944
5	0xbc4b5bcf	-0.012412026
6	0xbc1689df	-0.0091881445
7	0x3c9f575d	0.019450838
8	0x38b78f6b	8.752834e-05
9	0x3ba885b3	0.0051428913
10	0xbc44bcb6	-0.012007883
11	0x3bf887ee	0.0075845635
12	0xbb6f20c5	-0.0036488038
13	0x3c9bf02c	0.019035421
14	0xbce4faab	-0.027951559
15	0x3b9c7df9	0.0047757593
16	0xbbcdb619	-0.0062778112
17	0xbc23952c	-0.009984296
18	0x3a22b9a2	0.0006207471
19	0xbc065f10	-0.008201376
20	0x3b409682	0.0029386585
21	0x3c35b3dc	0.011090245
22	0x3c21a213	0.009865302
23	0xbc0ed742	-0.008718314
24	0x3b34d80a	0.002759459
25	0x3b94b7ad	0.0045384974
26	0x3c63642a	0.013878861
27	0x3b928b6e	0.0044721877
28	0xbc89c4ef	-0.016817538
29	0x3c532b96	0.01288881
30	0x3c0b290a	0.008493671
31	0xbc494129	-0.012283602
32	0x3cb10bdf	0.021612106
33	0x3cb5acbe	0.022177096
34	0xbc6f60aa	-0.014610449
35	0xbc6220d8	-0.013801776
36	0x3baf807d	0.005355893
37	0xbba76994	-0.0051090214
38	0xbc015f44	-0.007896248
39	0x3c0cbc76	0.008589854
40	0x3cb7cb93	0.022435939
41	0xbc380f47	-0.011234111
42	0x3c9eddfd	0.019392962
43	0xbb9453b3	-0.0045265793
44	0x3b976329	0.004619975
45	0xbc5521de	-0.013008563
46	0x3c7aed67	0.01531539
47	0x3a63982b	0.00086820376
48	0xbba7869f	-0.0051124836
49	0x3c1a0d3e	0.009402571
50	0x3ad1ea11	0.0016015192
51	0xbc54e929	-0.012995043
52	0xbb01452f	-0.0019725075
53	0xbc965f6d	-0.01835605
54	0x3b1d524f	0.0024005359
55	0xb9029c6e	-0.0001245604
56	0x3c5fba50	0.01365526
57	0x3cef9f2f	0.02925071
58	0x3c1aea3f	0.009455263
59	0x3c278e14	0.010226745
60	0x3c8aa7a3	0.016925639
61	0x3c17280e	0.009225858
62	0x3c61deda	0.013786042
63	0xbcde1680	-0.027110338
64	0xbc36f056	-0.011165699
65	0xbc333947	-0.010938949
66	0x3b8673e0	0.004103169
67	0x3c857efc	0.016295902
68	0xbbc968b8	-0.0061465167
69	0xba3b0333	-0.00071339606
70	0xbc089794	-0.00833692
71	0x3729fe7b	1.0132436e-05
72	0x3bae5c64	0.0053210724
73	0xbb69544c	-0.0035603223
74	0x3a747c10	0.0009326348
75	0x3c73b4a6	0.014874613
76	0xbcd3e7db	-0.025867393
77	0x3c4b7cce	0.0124198925
78	0x3c73b8e1	0.014875622
79	0x3c52c86f	0.01286517
80	0x3bea2e99	0.007146668
81	0x3ce19730	0.027537912
82	0xbc8d3dba	-0.017241348
83	0x3c042103	0.008064511
84	0xbcd677a2	-0.026180092
85	0x3d0d4f77	0.03449961
86	0x3cb70d43	0.02234519
87	0xbc58a263	-0.01322231
88	0x3bb5073b	0.0055245436
89	0x3c668e15	0.014071961
90	0xbc70fb70	-0.014708385
91	0x3ab23e49	0.0013598885
92	0x3b2e9cce	0.0026643756
93	0x3c695af9	0.014242881
94	0x3b796aa2	0.0038057943
95	0x3aed818e	0.0018120275
96	0x3c17a24d	0.009255004
97	0x3c3ef66a	0.011655429
98	0xba220155	-0.0006180008
99	0x3c899c47	0.016798152
100	0x3c1665df	0.009179561
101	0x3c1f0b42	0.009707274
102	0x3c14cde0	0.009082288
103	0x3c7f5a5d	0.015585509
104	0xbbf70f03	-0.0075396313
105	0x3bdf6129	0.0068170023
106	0x3b3e6883	0.0029053993
107	0x3c39fecd	0.011352253
108	0xb8da8898	-0.000104204926
109	0x3b0d3408	0.0021545906
110	0x3b889357	0.004167955
111	0xbbb16dca	-0.005414699
112	0x3cab68ce	0.020923998
113	0xbc1aaa36	-0.0094399955
114	0x3c85b912	0.0163236
115	0x3c8604e7	0.01635976
116	0x3c86bf27	0.01644857
117	0xbc0cf885	-0.008604174
118	0x3c7c839b	0.015412237
119	0x3d1c2fe1	0.0381316
120	0x3b64cf5d	0.0034913637
121	0x3cc53cf5	0.024076918
122	0x3cb3e587	0.021960033
123	0x3d1b3937	0.03789636
124	0xbc999bf8	-0.01875113
125	0x3c8444d0	0.016146094
126	0xbc8be7f8	-0.017078385
127	0x3c7b08ff	0.015321969
128	0xbb4d702c	-0.0031347377
129	0x3cfc68f7	0.03081177
130	0x3bd1d6c9	0.006403778
131	0x3b4cd568	0.003125513
132	0x3c798743	0.015230003
133	0x3c880f99	0.016609
134	0x3d3c163b	0.045919638
135	0xbbaf97d6	-0.0053586764
136	0x3c951daa	0.018202621
137	0x3ba61f27	0.0050696316
138	0x391c6057	0.00014913209
139	0x3cae2e6f	0.021262376
140	0xbc04a4c7	-0.008095927
141	0xbc29758e	-0.010342969
142	0x3c4b83df	0.012421577
143	0x3a4cc4ce	0.00078113086
144	0xbbc211b1	-0.005922519
145	0x3bd5468c	0.006508654
146	0xbbfd4b5b	-0.0077299303
147	0x3d31d3e8	0.04341498
148	0x3c8acb28	0.016942576
149	0xbcb35f57	-0.021896048
150	0x3a4785a5	0.0007611162
151	0xbc185594	-0.009297747
152	0x3d0d1199	0.03444061
153	0xba0034cc	-0.000489068
154	0x3ccdab20	0.025106013
155	0x3b5424d4	0.0032370584
156	0x3d15a0cb	0.036530297
157	0xbc5d9606	-0.013524538
158	0x3cafc150	0.021454483
159	0xbae563ff	-0.0017501115
160	0xbc24332a	-0.010021964
161	0x3c2e8773	0.010652411
162	0xbc3276de	-0.010892598
163	0xbb88a95f	-0.004170581
164	0xbb20e1ad	-0.0024548576
165	0x3d444b41	0.04792333
166	0x3c3856f6	0.011251202
167	0x3bc86bca	0.006116365
168	0x3d451cc9	0.048123155
169	0x3c393b88	0.011305697
170	0xbc86d121	-0.016457142
171	0xbd223c63	-0.03960837
172	0xbaf25a9d	-0.001849014
173	0xbc03ec3c	-0.008051928
174	0x3c94f99f	0.018185435
175	0x3cc042ed	0.023469413
176	0x3b74d908	0.0037360806
177	0xbbf823b9	-0.007572618
178	0xbcdf5a3e	-0.02726471
179	0x3cd11d0a	0.025526542
180	0x3bf4b569	0.007467915
181	0xbd9d55d0	-0.07682383
182	0xbcd2495c	-0.025669746
183	0x3b394c72	0.0028274325
184	0x3cc0a9f8	0.023518547
185	0xbd09dc01	-0.033657078
186	0x3c945ae5	0.018109748
187	0x3af7d4ae	0.0018907988
188	0x3c644ecd	0.013934803
189	0x3c63ae12	0.013896482
190	0x3ca4ce5f	0.020117937
191	0x3c64050b	0.013917218
192	0xb969fe53	-0.00022315355
193	0x3b725697	0.003697788
194	0x3c47dcb4	0.012198616
195	0xbca197d6	-0.019725721
196	0x3c1ee6b9	0.009698563
197	0x3c2579b6	0.010099819
198	0x3d0ad063	0.03389014
199	0xbbe0afda	-0.0068569006
200	0x3bc88712	0.0061196173
201	0x3ccc18a7	0.024914099
202	0xbbf90697	-0.0075996625
203	0xbca182ec	-0.019715749
204	0x3bf5e90c	0.007504588
205	0x3d08a625	0.033361573
206	0xbb272b22	-0.0025507887
207	0x3c02e5a7	0.007989324
208	0xbcba7642	-0.022761468
209	0xb9f26201	-0.00046230856
210	0xbbee8e9e	-0.007280185
211	0x3d596f4e	0.053084664
212	0x3c09cdbb	0.008410866
213	0x3ac0c315	0.0014706576
214	0x3bf6dd6a	0.007533719
215	0x3ca9f73d	0.020747775
216	0x3a099a2a	0.00052491075
217	0xbc2e95bb	-0.010655816
218	0x3ad970da	0.0016589419
219	0xbd4148cd	-0.04718857
220	0xbbd0b7a7	-0.0063695493
221	0x3d3502dc	0.04419218
222	0x3bff4804	0.0077905674
223	0x3a390758	0.0007058284
224	0x3bb5c203	0.0055468096
225	0x3ddc6735	0.10761873
226	0x3c9ac0d7	0.018890781
227	0xba87f615	-0.0010373021
228	0x3cfdd1ca	0.030983824
229	0x3c02edf9	0.007991307
230	0x3c051817	0.008123419
231	0xbb383bb8	-0.0028111767
232	0xbc66b3e0	-0.0140809715
233	0xbc5a0c48	-0.013308592
234	0x3ba5e17e	0.005062281
235	0x3d2959c7	0.041345384
236	0x3c4f1dd9	0.012641394
237	0x3c57f6d3	0.013181406
238	0x3cc3dc80	0.023908854
239	0x3bf532e6	0.007482874
240	0x3c03bb19	0.008040213
241	0xbd1cbff0	-0.038268983
242	0x3c833f60	0.01602143
243	0x3c97a007	0.018508924
244	0xbd60dde0	-0.054899096
245	0xbaf73aea	-0.0018862162
246	0x3c268afa	0.0101649705
247	0x3b38b474	0.002818373
248	0x3a912753	0.0011074342
249	0x3db1e0eb	0.08685478
250	0xbcd370bd	-0.025810594
251	0x3bf1f253	0.0073836236
252	0x3d017b6b	0.03161184
253	0x3cfd94ea	0.030954797
254	0x3d0ffafb	0.035151463
255	0xbc90b384	-0.017663725

weight_hh_l0 f4 [192, 64]
0	0x3b9d83b3	0.0048069595
1	0xbb76c745	-0.0037655395
2	0x3c1e9333	0.00967865
3	0x3a7fc770	0.00097571965
4	0x3c8e1b80	0.017347097
5	0x3c1970f1	0.009365306
6	0x3c2bd300	0.010487318
7	0xbc8ce094	-0.017196931
8	0xbc6b00c0	-0.0143434405
9	0xbbcba253	-0.006214419
10	0x3c6c03f8	0.014405243
11	0x3c6a64cc	0.014306258
12	0x3c8ce02b	0.017196735
13	0x3c332a88	0.010935433
14	0xbc632c1d	-0.013865498
15	0x3c8ec5e7	0.017428352
16	0x3b62ec9c	0.0034625893
17	0x3914f837	0.00014206847
18	0x3bee5e89	0.007274453
19	0xbc4f5f8a	-0.012657056
20	0xbc25ea04	-0.010126594
21	0x3c2e1a62	0.010626407
22	0xbc03159c	-0.008000758
23	0x3be81aa9	0.0070832563
24	0x3c29ce9a	0.010364199
25	0xbc704fbb	-0.014667447
26	0xbc528118	-0.012848161
27	0xbc3b7e68	-0.011443712
28	0x3c39cdcf	0.0113405725
29	0xbc33494a	-0.010942766
30	0xbb93f08d	-0.00451476
31	0xbc4d1a93	-0.012518543
32	0xbc73d162	-0.014881464
33	0xbc273895	-0.010206361
34	0xbc6c5cf7	-0.014426461
35	0x3c1de244	0.009636465
36	0x3c7fff52	0.015624838
37	0x3b70cec7	0.0036744343
38	0xbc60633d	-0.013695535
39	0x3824eff6	3.9324128e-05
40	0xbc4d5fa0	-0.012535006
41	0x3c4780e7	0.012176729
42	0x3c7148d1	0.014726833
43	0x3a2cfc53	0.00065988785
44	0x3c6f9d64	0.014624927
45	0xba3cb717	-0.00071989134
46	0xbc5c8a3a	-0.01346069
47	0xbc3fc903	-0.01170564
48	0xbc6bc319	-0.014389777
49	0x3aec7937	0.0018041496
50	0xbb5a674c	-0.003332573
51	0xbc4647dc	-0.012102094
52	0x3c36761d	0.011136559
53	0xbb0fe675	-0.0021957431
54	0x3c6b1900	0.014349222
55	0xbc8212ad	-0.015878046
56	0x3abaef43	0.0014261979
57	0xbc69d479	-0.014271849
58	0x3c5bed38	0.013423257
59	0xbab5aa58	-0.001385997
60	0x3c64b1b4	0.013958383
61	0xbc81e4b7	-0.01585613
62	0xbc3529a7	-0.011057294
63	0xb9c601db	-0.00037766885
64	0x3cb78544	0.022402413
65	0xba81db64	-0.0009907302
66	0x3c7c85eb	0.015412788
67	0xbc1815d2	-0.009282546
68	0x3d04e3c1	0.032443766
69	0xbccf4d89	-0.025305526
70	0xbbb6109e	-0.00555618
71	0x3c1feee2	0.009761544
72	0xbc96d51c	-0.018412165
73	0xbbf0f69f	-0.0073536183
74	0x3c2c1fb3	0.010505605
75	0xbcf88671	-0.030337544
76	0xbcadb310	-0.021203548
77	0x3c4ba56a	0.0124295745
78	0xbc9b72ce	-0.018975642
79	0xbc885753	-0.016643202
80	0xbc9b849b	-0.01898413
81	0xbd068297	-0.032839384
82	0xbb8f4fe0	-0.0043735355
83	0xbb291c30	-0.0025804155
84	0xbd101f63	-0.035186183
85	0xbbf4db6f	-0.0074724476
86	0xba419be0	-0.0007385593
87	0xbc9e0cb5	-0.019293169
88	0xbc9c9543	-0.019114142
89	0xbc8a03ac	-0.016847454
90	0x3c7c9a1b	0.015417601
91	0x3c40fba0	0.011778742
92	0x3bfff0cf	0.007810689
93	0xbd3f70d0	-0.046738446
94	0x3d0cc35f	0.034366008
95	0xbc9de356	-0.019273441
96	0xbc90fbf1	-0.01769826
97	0x3d09e603	0.033666622
98	0xbcbc833d	-0.023011798
99	0xbccb18a5	-0.024792025
100	0x3cb4b639	0.022059547
101	0x3c803b2e	0.01565322
102	0xbc9b2225	-0.01893718
103	0x3ce2936c	0.027658187
104	0x3d288ae0	0.041148067
105	0xbcb09018	-0.021553084
106	0x3c996bf3	0.018728232
107	0x3cdca99c	0.026936345
108	0x3c9f840a	0.01947214
109	0xbca10bb0	-0.019658893
110	0xbcbbd218	-0.022927329
111	0xb94dd7bb	-0.0001963069
112	0xbc96025f	-0.018311678
113	0xbbe328c3	-0.0069323494
114	0xbb72d71d	-0.0037054487
115	0x3d0933d5	0.033496697
116	0x3c819b48	0.015821114
117	0x39371343	0.00017459416
118	0x3c8b44db	0.017000606
119	0xbcaeedb8	-0.021353588
120	0x3cb8ca4f	0.022557406
121	0xbcd08c01	-0.025457384
122	0x3cefc231	0.029267402
123	0xbd018399	-0.031619642
124	0x3c94bd3d	0.018156642
125	0x3cc913d0	0.02454558
126	0xbc936cf4	-0.017996289
127	0xbd42b3a8	-0.047534615
128	0x3a4092f6	0.00073461176
129	0xbcd413b1	-0.025888296
130	0x3c18ab3c	0.009318169
131	0xbc759697	-0.014989517
132	0x3c98d771	0.018657418
133	0x3bc6243a	0.006046799
134	0x3d07b40a	0.033130683
135	0xbcb4a4a2	-0.02205116
136	0xbd19977e	-0.03749799
137	0x3c8df31e	0.017327841
138	0x3d4ea78f	0.050452765
139	0x3d59a5c1	0.05313659
140	0x3cd3986a	0.025829513
141	0x3d3b210f	0.045685824
142	0x3c21607b	0.009849663
143	0x3cf764c9	0.030199425
144	0x3c7deb30	0.015497968
145	0xba92a9c7	-0.0011189514
146	0xba20cf33	-0.0006134391
147	0xbc5e40f6	-0.013565293
148	0xbc9d986b	-0.019237718
149	0x3cc9f481	0.024652721
150	0xbc85a755	-0.016315142
151	0x3c036fdb	0.008022274
152	0x3cb65388	0.022256628
153	0x3cd03355	0.025415102
154	0xbcf15d0b	-0.029463312
155	0xbcc29fee	-0.023757901
156	0x3c44c470	0.012009725
157	0xb9d68bd8	-0.00040921452
158	0xbd32ab64	-0.043620482
159	0xbce672ac	-0.028130852
160	0xbd1bf315	-0.038073618
161	0x3baee5cc	0.0053374525
162	0xbba6f6e9	-0.005095352
163	0x3cb2424b	0.021760127
164	0x3ab9160c	0.001412095
165	0x3d3f02ae	0.046633415
166	0xbd7172ee	-0.058947496
167	0x3d466b2f	0.048442062
168	0xbce73ab8	-0.028226241
169	0x3ce7a2f6	0.028275948
170	0xbc914abb	-0.01773583
171	0xbb0a6c46	-0.0021121665
172	0x3d0466d4	0.032324627
173	0xbc28debe	-0.010307012
174	0xbc08ce71	-0.008350001
175	0xbc315493	-0.010823387
176	0xbd4818cd	-0.048851777
177	0x3bdae1de	0.0066797575
178	0xbb4c1723	-0.003114172
179	0xbc9ac866	-0.018894386
180	0x3d471632	0.04860515
181	0x3a9b27b0	0.0011837389
182	0x3d9772c7	0.07394939
183	0xbbdc849a	-0.0067296745
184	0x3c8c249d	0.017107302
185	0x3be331c1	0.0069334214
186	0x3b66f2da	0.0035239966
187	0xbd0f9019	-0.03504953
188	0xbc5db39c	-0.013531592
189	0xbd2e1329	-0.04249874
190	0xbc9bffb9	-0.019042837
191	0x3c79bb04	0.015242342
192	0x3d0e4ad7	0.03473934
193	0x3c4894fb	0.012242551
194	0x3d00adf7	0.031415906
195	0x3ba792ac	0.00511392
196	0xbc557f78	-0.013030879
197	0xbc921935	-0.017834285
198	0x3bf656bc	0.0075176638
199	0x3c0377e5	0.008024191
200	0xbd07f5e9	-0.033193503
201	0xbd02515a	-0.031815864
202	0x3ce122d1	0.027482422
203	0xbc9de104	-0.019272335
204	0xbcc33e1b	-0.023833325
205	0x3d119f0a	0.035552062
206	0xbcfea78f	-0.031085758
207	0xbcb93c9e	-0.022611912
208	0xbceb793b	-0.02874433
209	0xbcb4c748	-0.022067681
210	0x3ba3e818	0.005002033
211	0x3c5ca6e4	0.013467524
212	0xbce1c478	-0.027559504
213	0x3c6bf583	0.014401796
214	0xbab95b78	-0.001414164
215	0x3a10e32e	0.00055270165
216	0xbc941dd7	-0.018080635
217	0xbd0ab243	-0.03386141
218	0x3ca8fcbe	0.02062833
219	0xbb7e7edd	-0.003883294
220	0x3d032baa	0.032024063
221	0x3b81fb0c	0.0039666947
222	0x3cb63b6b	0.02224513
223	0x3c047f10	0.008086935
224	0xbd11a7a6	-0.035560273
225	0x3cb987ae	0.022647705
226	0xbd02eb7a	-0.03196285
227	0xbcfdbc63	-0.030973619
228	0x3d05aa0a	0.032632865
229	0x3c8ac05b	0.016937425
230	0xbd081fe2	-0.03323353
231	0x3cc5166f	0.024058549
232	0xbabc9f9c	-0.0014390829
233	0xbc28b50e	-0.010297073
234	0x3d09d6fc	0.03365229
235	0x3c2534d3	0.010083395
236	0x3d107338	0.03526613
237	0xbc02ae84	-0.007976178
238	0xbd06b84f	-0.032890614
239	0x3b65ba0c	0.003505352
240	0xbd023a33	-0.031793784
241	0x3c30c67d	0.010789511
242	0xbc306a88	-0.0107675865
243	0x3cae9df6	0.021315556
244	0x3d08355b	0.03325401
245	0xbc157f06	-0.009124523
246	0x3d09b4e1	0.033619765
247	0xbd132b54	-0.035929993
248	0x3cd64757	0.026157064
249	0xbb64a270	-0.003488686
250	0x3cb676e9	0.022273498
251	0xbcaf2797	-0.021381183
252	0x3d09a805	0.0336075
253	0x3ccadb77	0.024762852
254	0xbcc1c7ed	-0.023654902
255	0xbcddf296	-0.027093213
