Models/best_model-F3-CNNGRU.pt (torch, 314601 bytes, 17 tensors)

weight f4 [128, 19, 2]
0.20232998 0.26094514 -0.017479723 0.019897832 -0.10230588 -0.08213988 -0.095771626 -0.014331346
0.31206086 0.07125979 0.017987203 -0.06642927 0.11679143 0.016013494 0.16242912 0.079481155
0.055995356 -0.022951704 -0.001473838 0.08685662 -0.7686714 -0.78496385 -0.14144768 -0.015433775
-0.04476124 -0.004953086 0.04301438 0.0045504128 -0.016354848 -0.14855614 0.006200337 -0.14290828
0.19015487 -0.0755509 0.08576712 0.14093405 0.14117408 0.19799599 0.068460554 0.0050814464
0.057564117 0.028353551 0.18562752 0.24335924 -0.12746148 -0.06846081 0.027228124 -0.0046774256
0.113397904 0.052145015 -0.10844482 -0.058172718 -0.1613246 -0.05228609 -0.16985781 -0.1683422
-0.17308351 -0.20789915 0.38380945 0.27316853 0.0031494729 -0.036069818 -0.1411316 -0.18945827
0.035259433 -0.009581081 0.20031986 0.062340382 0.13981873 -0.00034805707 0.044227615 0.09105972
-0.015958775 -0.22248495 -0.080958776 -0.009463308 -0.13464534 -0.019303754 -0.063311554 -0.06965493
-0.19302745 -0.2736348 0.11059515 0.09256382 0.24956383 0.12995417 -0.07777512 -0.21487595
-0.13741127 -0.0606524 -0.043606702 -0.08094205 -0.0050826953 -0.0046948274 -0.0649065 -0.071543895
-0.36936712 -0.53503317 -0.034781158 -0.10034938 -0.03953104 0.058035832 -0.01381629 -0.08040887
0.02920864 -0.052620362 -0.29291835 -0.2337076 0.037244882 -0.025350465 0.046547536 0.06581302
0.1483043 0.0258938 -0.117519945 0.054028947 -0.027357869 -0.20660514 -0.20095369 -0.19136894
0.17748918 0.1434975 -0.017895006 -0.041580357 -0.102276646 -0.104186215 0.038845334 0.001544261
0.2663313 0.17596164 0.08698802 0.0516542 -0.26169658 -0.08525473 -0.27577373 -0.2995928
-0.21916738 -0.2304567 0.020131364 -0.03556668 0.2094471 0.0907107 0.10417725 -0.04740871
0.008688497 0.056382596 -0.14169072 0.11800815 0.2940215 -0.16518474 0.03377166 -0.063501336
-0.12722303 -0.13989146 0.025054216 -0.044113323 -0.02621414 -0.031880386 0.03665002 -0.012721717
0.07683089 0.025315212 -0.04170021 -0.09506838 0.2964855 0.24919079 0.061978184 0.18626517
0.021698216 -0.027104132 -0.023296505 0.04670626 0.0039169188 -0.07674478 -0.18851057 -0.17993425
0.0056079156 0.09569559 -0.019013686 -0.13473782 0.14268 0.1643403 0.0969138 -0.035987996
-0.07115646 0.06812963 0.08454498 -0.055414807 -0.043489516 0.032289196 -0.4079594 -0.4065838
0.114136696 0.12583278 -0.27958146 -0.2991295 -0.025490709 -0.021136165 0.13494593 0.13295479
-0.106210224 -0.0650384 -0.03390275 -0.06432048 -0.06913377 -0.10551588 -0.082808234 -0.115728095
-0.1032934 -0.073552884 -0.15768023 -0.15676759 -0.028972067 -0.0064900224 0.010750703 0.11568367
0.0038761266 -0.028586362 0.045435984 -0.023455968 -0.13685454 0.036167447 0.022099447 0.08018565
-0.012594327 0.15248093 0.09353493 0.04041431 0.14457452 0.1468457 0.050950333 0.10314906
0.10569524 0.21640943 -0.001510087 0.015853878 -0.14463358 -0.20523435 -0.04067367 -0.038822446
0.05598856 -0.031501036 -0.09690338 -0.1211558 -0.0036290996 -0.09100085 -0.24953157 -0.18519954
0.6537749 0.76713765 -0.07181786 -0.11980394 -0.018821312 -0.055681378 0.06826417 -0.004080184
00000000: 972f 4f3e 9a9a 853e a331 8fbc c700 a33c
00000010: bf85 d1bd f438 a8bd ea23 c4bd 06ce 6abc
00000020: 71c6 9f3e a7f0 913d e659 933c 120c 88bd
00000030: 5830 ef3d bb2e 833c d253 263e 04c7 a23d
00000040: 635b 653d 3605 bcbc cc2d c1ba e2e1 b13d
00000050: a6c7 44bf 64f3 48bf a9d7 10be f2dd 7cbc
00000060: 9057 37bd 7f4d a2bb d92f 303d a11b 953b
00000070: 9afa 85bc 1a1f 18be 322c cb3b 8c56 12be
00000080: f5b7 423e 6eba 9abd aca6 af3d 0451 103e
00000090: f08f 103e 76bf 4a3e 0c35 8c3d 4382 a63b
000000a0: 5ac8 6b3d b545 e83c 2415 3e3e 2a33 793e
000000b0: 4385 02be 2e35 8cbd 840d df3c 1745 99bb
000000c0: 293d e83d 0396 553d 5118 debd 8446 6ebd
000000d0: 4732 25be f029 56bd 35ef 2dbe e661 2cbe
000000e0: ce3c 31be 84e3 54be ac82 c43e bfdc 8b3e
000000f0: 6367 4e3b f2bd 13bd cd84 10be 5901 42be
00000100: 326c 103d f7f9 1cbc a620 4d3e a158 7f3d
00000110: a42c 0f3e 6e7b b6b9 0428 353d 857d ba3d
00000120: fabb 82bc 18d3 63be b7cd a5bd fe0b 1bbc
00000130: 78e0 09be e822 9ebc 7da9 81bd 3ea7 8ebd
00000140: fda8 45be dc19 8cbe b67f e23d 1a92 bd3d
00000150: a98d 7f3e b512 053e 9048 9fbd 7108 5cbe
00000160: 8ab5 0cbe a76e 78bd f19c 32bd f2c4 a5bd
00000170: bd8c a6bb 11d7 99bb b3ed 84bd 9b85 92bd
00000180: b01d bdbe eff7 08bf b076 0ebd fa83 cdbd
00000190: 4deb 21bd fbb6 6d3d b85d 62bc 68ad a4bd
000001a0: f546 ef3c 7388 57bd 65f9 95be 0c51 6fbe
000001b0: 178e 183d c7ab cfbc a1a8 3e3d fac8 863d
000001c0: 15dd 173e 3c1f d43c 4cae f0bd 754d 5d3d
000001d0: 9c1d e0bc 4c90 53be cec6 4dbe 38f6 43be
000001e0: b9bf 353e 02f1 123e 8c98 92bc 2a50 2abd
000001f0: 6b76 d1bd 955f d5bd 491c 1f3d cd68 ca3a
00000200: 935c 883e 4a2f 343e c626 b23d 5b93 533d
00000210: 18fd 85be 089a aebd 3732 8dbe 3a64 99be
00000220: 6a6d 60be d7fc 6bbe 88ea a43c 5eae 11bd
00000230: 4d79 563e 88c6 b93d e25a d53d a32f 42bd
00000240: 335a 0e3c 70f1 663d 5f17 11be 42ae f13d
00000250: fc89 963e 3026 29be 2754 0a3d fd0c 82bd
00000260: c146 02be b53f 0fbe 803e cd3c 2cb0 34bd
00000270: 09bf d6bc 0295 02bd 551e 163d c06e 50bc
00000280: 8359 9d3d d961 cf3c d7cd 2abd 36b3 c2bd
00000290: f3cc 973e df2b 7f3e d6dc 7d3d 4cbc 3e3e
000002a0: 75c0 b13c 7c09 debc 50d8 bebc 104f 3f3d
000002b0: 7f59 803b 5e2c 9dbd ea08 41be af40 38be
000002c0: 9bc2 b73b 0dfc c33d 97c2 9bbc b6f8 09be
000002d0: b51a 123e d348 283e be7a c63d 2668 13bd
000002e0: 7aba 91bd 8c87 8b3d eb25 ad3d a3fa 62bd
000002f0: 1022 32bd ad41 043d 0ee0 d0be c02b d0be
00000300: 80c0 e93d 4fda 003e 4d25 8fbe 8027 99be
00000310: e4d1 d0bc c025 adbc 442f 0a3e 4d25 083e
00000320: bf84 d9bd da32 85bd 9cdd 0abd 75ba 83bd
00000330: 0296 8dbd b618 d8bd 5d97 a9bd da02 edbd
00000340: 7d8b d3bd e5a2 96bd ed76 21be af87 20be
00000350: d456 edbc 41aa d4bb b723 303c 8feb ec3d
00000360: 9d06 7e3b f22d eabc 151b 3a3d bb26 c0bc
00000370: 9923 0cbe 5124 143d e609 b53c 6038 a43d
00000380: 7058 4ebc f623 1c3e 3e8f bf3d 7a89 253d
00000390: 580b 143e b85e 163e 4cb1 503d d03f d33d
000003a0: bf76 d83d 6f9a 5d3e 1dee c5ba fedf 813c
000003b0: d31a 14be f428 52be 6f99 26bd 4904 1fbd
000003c0: 4354 653d 3b07 01bd 4775 c6bd 8820 f8bd
000003d0: 30d6 6dbb a75e babd 3485 7fbe f3a4 3dbe
000003e0: cb5d 273f 2263 443f 3e15 93bd c55b f5bd
000003f0: 272f 9abc 2812 64bd 16ce 8b3d 10b3 85bb

bias f4 [128]
-4.0398563e-06 1.10972096e-07 -2.1249916e-08 -6.9322107e-07 -1.8893666e-06 1.5846748e-06 -1.7204183e-06 -4.899888e-06
-4.5489864e-07 -1.14902335e-07 1.2560625e-06 -5.2305445e-06 1.5534656e-06 -2.5223064e-06 7.657303e-07 -1.6134295e-06
-6.110056e-07 2.7957205e-06 -2.1467342e-06 1.8713251e-06 -5.3802805e-06 2.8363559e-06 -9.691147e-07 2.0701373e-06
-3.5505261e-06 -3.3027125e-06 3.1221128e-07 2.6341472e-06 -1.8795603e-07 -1.5985639e-06 2.027101e-06 -1.5278821e-06
1.5128263e-06 -1.9466424e-06 1.2649705e-06 1.3498232e-06 -3.4542236e-06 1.8789403e-07 -9.740926e-07 -4.8015625e-07
1.1470228e-06 1.1381185e-06 -8.70215e-07 -3.5357837e-07 2.657187e-07 -1.9650395e-06 -1.6584069e-06 -4.433653e-06
-2.5591586e-07 6.0523206e-07 -2.5983698e-07 5.3169556e-06 3.4451248e-06 3.7958634e-06 -2.5575575e-06 2.0828422e-06
5.7005326e-07 -1.3914586e-06 -1.2344817e-07 -4.7699223e-06 -1.1523119e-06 -1.8630609e-06 2.0217972e-06 3.859786e-06
2.7906003e-06 -4.8692107e-07 -1.8734006e-06 2.848313e-06 3.89208e-06 4.3687896e-06 -5.0691597e-07 1.7700734e-06
-3.0496906e-06 2.8099169e-06 -2.7261194e-06 -1.9526774e-06 -3.4120233e-06 3.7203538e-06 -3.2486976e-06 3.3911858e-06
5.711463e-06 -1.3519075e-06 2.0388263e-06 1.7165377e-07 -1.0396385e-06 9.7854e-07 -1.8627611e-06 -8.6654956e-07
2.0816892e-06 -5.833637e-07 -9.247491e-07 -1.4727509e-06 3.2725118e-06 -2.0186208e-06 1.2932722e-06 -1.7735238e-06
2.9487805e-07 -1.2489377e-07 -6.190772e-07 2.5056302e-06 -1.3513978e-06 1.6452339e-06 2.5461543e-06 4.584624e-06
-2.9436428e-06 5.4035837e-07 -1.4008164e-06 4.411388e-06 -2.3615145e-07 -1.4947999e-06 3.626193e-06 -2.4216956e-06
1.9394108e-06 8.64348e-07 4.0809687e-06 4.7174962e-07 2.7276421e-06 -2.844945e-06 -4.8939764e-06 -8.5136645e-07
-4.2282413e-06 3.099999e-06 3.5875114e-06 5.0139233e-06 4.2026822e-06 -8.5434345e-07 -4.9345617e-06 -2.7516198e-06
00000000: 1a8e 87b6 8e4f ee33 0f89 b6b2 ca15 3ab5
00000010: 2496 fdb5 03b1 d435 1fe9 e6b5 b869 a4b6
00000020: cb38 f4b4 3ac0 f6b3 fb95 a835 0982 afb6
00000030: ac80 d035 e544 29b6 968c 4d35 048d d8b5
00000040: fc03 24b5 1d9e 3b36 9d10 10b6 3e2a fb35
00000050: 4288 b4b6 3958 3e36 8712 82b5 b0ec 0a36
00000060: 9345 6eb6 2ba4 5db6 fe9d a734 4ec6 3036
00000070: f6d0 49b4 3d8e d6b5 5409 0836 a111 cdb5
00000080: 510c cb35 10a3 02b6 0ec8 a935 922b b535
00000090: 1ccf 67b6 ebbf 4934 91bd 82b5 16e4 00b5
000000a0: 67f3 9935 74c1 9835 b898 69b5 71d3 bdb4
000000b0: 1aa8 8e34 1fdf 03b6 6d96 deb5 cac4 94b6
000000c0: cf64 89b4 3b77 2235 b97f 8bb4 4d68 b236
000000d0: cb32 6736 70bc 7e36 81a2 2bb6 f5c6 0b36
000000e0: c305 1935 27c2 bab5 2d8d 04b4 520d a0b6
000000f0: 23a9 9ab5 490e fab5 36ae 0736 4f83 8136
00000100: 2646 3b36 f6b4 02b5 8e71 fbb5 a525 3f36
00000110: b698 8236 9e97 9236 0013 08b5 4293 ed35
00000120: 49a9 4cb6 0192 3c36 60f2 36b6 be0a 03b6
00000130: 1dfa 64b6 31ab 7936 3304 5ab6 2194 6336
00000140: 18a5 bf36 3073 b5b5 c5d2 0836 d44f 3834
00000150: b589 8bb5 6156 8335 fc03 fab5 d59c 68b5
00000160: 26b3 0b36 7398 1cb5 463c 78b5 56ab c5b5
00000170: 539d 5b36 a477 07b6 7f94 ad35 d009 eeb5
00000180: bb4f 9e34 8a1a 06b4 a92e 26b5 6626 2836
00000190: ad61 b5b5 ced1 dc35 99de 2a36 9fd5 9936
000001a0: 668b 45b6 250d 1135 af03 bcb5 8905 9436
000001b0: d190 7db4 efa0 c8b5 8559 7336 6a84 22b6
000001c0: d326 0236 8b05 6835 41ef 8836 c644 fd34
000001d0: 890c 3736 c8eb 3eb6 f036 a4b6 7589 64b5
000001e0: 51e0 8db6 9409 5036 fac0 7036 463d a836
000001f0: c404 8d36 0956 65b5 9093 a5b6 78a8 38b6

weight f4 [128]
1.0139371 0.35898432 0.77760607 0.56193876 0.30616626 0.6065284 0.8822973 0.8021999
1.0036454 0.3576172 0.66968745 0.5043599 0.9168819 0.29336885 0.7718718 0.56887436
0.6729408 0.6946697 0.6357055 0.5727773 1.1463739 0.32210433 0.82455134 0.5571871
1.0769368 1.0397938 0.49150655 0.61547256 1.0631887 0.5737911 0.6164064 0.15964706
0.36533287 0.55009264 0.7381376 0.50696653 0.510137 0.47280627 0.13408166 0.8612899
0.36930472 0.52320707 0.24736387 0.41003838 0.3874488 0.8830658 0.619204 0.51440185
0.830942 0.56850845 0.2678047 1.1799706 0.6451479 0.39010668 0.26114935 0.3733433
0.574898 0.7037575 0.21425179 0.56977314 0.2765996 0.6736951 0.44663864 0.6406458
0.60960793 0.7593421 1.1353259 1.1736372 0.4253362 0.58753765 0.53793114 0.6567771
0.6041386 0.79279935 0.2265733 0.7765842 0.8178504 0.75350153 0.5619638 0.38322082
1.50017 0.31064835 0.35737935 0.7426643 0.4057536 0.12243365 0.7384285 0.9934973
0.42413244 0.70237106 0.3853776 0.822911 0.70542544 0.26242438 0.37810805 0.38187307
0.5355059 0.24005666 0.4193133 0.8089367 0.21581185 0.67105216 0.92997354 0.33975747
0.806824 0.6357788 0.7266663 0.6667867 0.29421398 0.9765771 0.69772744 0.9284964
0.7701599 0.19599016 0.37797037 0.65930724 0.41616505 0.5955229 0.4621025 0.48880425
0.422765 0.3188113 0.8317113 0.97133785 0.5921196 0.62464345 0.60186553 0.82682514
00000000: b1c8 813f cbcc b73e 3111 473f 38db 0f3f
00000010: d3c1 9c3e 7245 1b3f 3cde 613f f95c 4d3f
00000020: 7477 803f 9a19 b73e a370 2b3f bb1d 013f
00000030: c6b8 6a3f 7134 963e 6499 453f c0a1 113f
00000040: d945 2c3f e0d5 313f 98bd 223f 88a1 123f
00000050: 61bc 923f dcea a43e cc15 533f d0a3 0e3f
00000060: 11d9 893f f717 853f bfa6 fb3e 9c8f 1d3f
00000070: 9116 883f f9e3 123f cfcc 1d3f 857a 233e
00000080: e90c bb3e dfd2 0c3f 96f6 3c3f 8fc8 013f
00000090: 5798 023f aa13 f23e b44c 093e 7f7d 5c3f
000000a0: 8215 bd3e e6f0 053f f44c 7d3e 8df0 d13e
000000b0: b05f c63e 9a10 623f 2784 1e3f d7af 033f
000000c0: 9db8 543f c589 113f b31d 893e 4709 973f
000000d0: 6a28 253f 10bc c73e 5eb5 853e da26 bf3e
000000e0: 842c 133f 7429 343f d264 5b3e a7dc 113f
000000f0: 769e 8d3e 4877 2c3f d2ad e43e 5d01 243f
00000100: 440f 1c3f 3e64 423f 5c52 913f be39 963f
00000110: abc5 d93e de68 163f dbb5 093f 8b22 283f
00000120: d4a8 1a3f e6f4 4a3f d502 683e 39ce 463f
00000130: a55e 513f 7ae5 403f dcdc 0f3f 8535 c43e
00000140: 9205 c03f 4d0d 9f3e 6dfa b63e 3f1f 3e3f
00000150: f0be cf3e 7ebe fa3d a609 3d3f d755 7e3f
00000160: e327 d93e 97ce 333f 3650 c53e 4caa 523f
00000170: c396 343f 7d5c 863e 6197 c13e de84 c33e
00000180: ea16 093f 6ad1 753e 3cb0 d63e 7a16 4f3f
00000190: c8fd 5c3e 13ca 2b3f bf12 6e3f b1f4 ad3e
000001a0: 058c 4e3f 66c2 223f cd06 3a3f 88b2 2a3f
000001b0: 37a3 963e f500 7a3f 449e 323f f1b1 6d3f
000001c0: 3329 453f a5b1 483e 5585 c13e 5cc8 283f
000001d0: 9613 d53e 3074 183f b398 ec3e 8d44 fa3e
000001e0: a774 d83e 3c3b a33e 08eb 543f 99a9 783f
000001f0: 2695 173f a2e8 1f3f dc13 1a3f d0aa 533f

bias f4 [128]
-0.37130305 -0.25629333 -0.04808295 -0.30684036 -0.21907711 -0.018180713 -0.08350869 -0.107509516
0.05306385 -0.10204488 0.2766115 0.00392824 0.08292641 -0.082716376 -0.25786424 -0.14882296
-0.14611089 -0.29575115 -0.10950837 -0.111607224 -0.21258149 -0.075038105 -0.2531614 -0.10304753
-0.02129837 0.12516949 -0.020449214 -0.1281652 0.08654312 -0.31866124 -0.16857484 -0.23946266
-0.30615315 -0.24068052 -0.14955185 -0.1314156 -0.13036779 -0.14322624 -0.20998663 -0.022792146
-0.24854976 -0.3506331 -0.12256671 -0.30177897 -0.061253242 -0.19516376 -0.06850702 -0.17445023
0.0040394575 -0.055138655 -0.2627086 -0.20580055 0.04225069 -0.06810664 -0.12786978 -0.1545979
-0.16299964 -0.19349626 -0.24771924 -0.19735795 -0.22836047 -0.2391774 -0.093810715 -0.16336302
-0.35444042 -0.19155055 -0.034749944 -0.04147792 -0.1994708 -0.16038495 0.05570136 -0.055049226
-0.25082308 -0.14639606 -0.13958712 -0.25794616 0.13169076 -0.2776599 -0.17367573 -0.162264
0.088430844 -0.2539584 -0.22871757 -0.19932315 -0.19240913 -0.058771312 -0.23810604 -0.18820359
-0.010976163 -0.1484277 -0.099050455 -0.2064239 -0.27727306 -0.17895402 -0.10365498 -0.118309975
-0.15548374 -0.17954525 -0.16305496 -0.3446476 -0.24662013 -0.14308606 -0.24845877 0.029753853
-0.34582204 -0.24148266 -0.17285742 -0.34532437 -0.15758441 -0.42486867 0.29509187 -0.38904798
-0.13449854 -0.1955079 -0.0034675999 -0.04182455 -0.29512724 -0.27057204 -0.1848957 -0.007849772
0.0061365254 -0.12456527 -0.22608969 0.04827467 -0.023158967 -0.30777526 -0.15958756 0.15657304
00000000: 6f1b bebe e138 83be a1f2 44bd 2e1a 9dbe
00000010: c055 60be b8ef 94bc 9b06 abbd f32d dcbd
00000020: 7b59 593d e8fc d0bd 06a0 8d3e 77b8 803b
00000030: 52d5 a93d 3467 a9bd c806 84be 0c65 18be
00000040: 189e 15be b26c 97be ed45 e0bd 5492 e4bd
00000050: f6ae 59be 94ad 99bd 5f9e 81be 950a d3bd
00000060: eb79 aebc 6e2c 003e 1c85 a7bc bd3d 03be
00000070: 853d b13d 9127 a3be e29e 2cbe b335 75be
00000080: 1bc0 9cbe f474 76be 1f24 19be d091 06be
00000090: 227f 05be e6a9 12be bc06 57be 98b6 babc
000000a0: d483 7ebe 2f86 b3be 4104 fbbd c682 9abe
000000b0: aee4 7abd 02d9 47be 694d 8cbd 15a3 32be
000000c0: 6d5d 843b 12d9 61bd be81 86be 61bd 52be
000000d0: 0f0f 2d3d 7e7b 8bbd 4cf0 02be e94e 1ebe
000000e0: 61e9 26be e223 46be 1daa 7dbe 3418 4abe
000000f0: 54d7 69be ecea 74be d51f c0bd a348 27be
00000100: 3779 b5be d425 44be f555 0ebd c0e4 29bd
00000110: 1342 4cbe f43b 24be 1c27 643d 4c7b 61bd
00000120: e26b 80be d9e8 15be edef 0ebe 8511 84be
00000130: f1d9 063e 7029 8ebe 0dd8 31be 8928 26be
00000140: 3b1b b53d d606 82be f034 6abe 5e1b 4cbe
00000150: e606 45be 30ba 70bd 12d2 73be 71b8 40be
00000160: 5dd5 33bc 6efd 17be f7da cabd c960 53be
00000170: bcf6 8dbe b93f 37be 1049 d4bd 804c f2bd
00000180: 2137 1fbe b6da 37be e1f7 26be a675 b0be
00000190: fd89 7cbe 2785 12be fa6b 7ebe 5abe f33c
000001a0: 960f b1be 3b47 77be 8901 31be 5bce b0be
000001b0: cf5d 21be 6388 d9be 4816 973e 4c31 c7be
000001c0: fcb9 09be 3933 48be ac40 63bb 3850 2bbd
000001d0: eb1a 97be 6b88 8abe 4c55 3dbe 559c 00bc
000001e0: e814 c93b 141c ffbd 0e84 67be a9bb 453d
000001f0: e0b7 bdbc b894 9dbe ec6a 23be af54 203e

running_mean f4 [128]
0.015414311 -0.00066111854 0.012663896 -0.0024392386 -0.010394773 0.01638236 -0.024280043 -0.022176823
-0.0025943818 0.00037777072 0.0019961947 -0.014553549 0.011453413 -0.0041003996 -0.008950607 -0.0036352645
0.0032740913 0.015503503 0.00015903715 -0.015395912 0.000595313 0.00020781517 -0.01436918 -0.002608433
-0.0024078775 -0.005411982 -0.0022090646 -0.0010708672 -0.009452712 0.0023587912 0.010096535 0.00043198717
0.002969417 0.022106724 0.005783574 -0.009212807 0.00341784 0.0139435325 -0.0038366453 0.0067600715
0.003957344 0.0051308377 0.0086218305 -0.0043198005 0.006702916 -0.013403694 -0.005726814 -0.017932417
0.022933232 -0.025458574 -0.0029395565 -0.017316857 -0.00363784 -0.0033439088 -0.0023503387 -0.007359491
-0.030167073 -0.0017699039 -0.00674504 0.0053087776 0.0006018987 0.008606087 -0.0010644663 0.024576645
-0.010374391 -0.0007939707 -0.00033462263 -0.022970228 0.010233309 0.0058767176 0.014405374 -0.011986929
-0.0012985218 0.021810401 -0.0052688364 -0.017557386 0.0036881324 -0.0100702755 -0.010642213 -0.0052164537
-0.025894739 -0.0072280113 -0.017646132 -0.005956433 -0.0018315599 -0.0018878562 -0.016480688 0.0045227148
1.7513023e-05 -0.001456339 -0.01128628 -0.00465323 0.009312943 -0.004460648 -0.013715708 0.012219324
-0.003699532 0.014170897 -0.007815397 0.019269083 0.0031164412 -0.010222579 0.010655267 -0.0033066373
-0.015091886 -0.0018551348 -0.011725051 -0.0043394035 0.0021351771 0.011249478 -0.0018835602 -0.016922405
-0.003576637 0.004888958 0.002776476 0.004333655 -0.005742788 -0.008707859 0.017979058 0.013995669
-0.0031915298 -0.009402531 -0.013436438 -0.021166258 0.007448274 0.011892606 -0.024843996 -0.012237519
00000000: 4e8c 7c3c ea4e 2dba 3b7c 4f3c a2db 1fbb
00000010: d74e 2abc 4d34 863c f1e6 c6bc 2bac b5bc
00000020: 8106 2abb 870f c639 97d2 023b 0272 6ebc
00000030: 19a7 3b3c a55c 86bb 91a5 12bc 9e3d 6ebb
00000040: 2392 563b 6802 7e3c 36c3 2639 233f 7cbc
00000050: c70e 1c3a f6e8 5939 b66c 6bbc 3ef2 2abb
00000060: 7bcd 1dbb ff56 b1bb f4c5 10bb 575c 8cba
00000070: 8cdf 1abc f395 1a3b f06b 253c 567c e239
00000080: 8d9a 423b 2919 b53c 2384 bd3b 50f1 16bc
00000090: d7fd 5f3b 6a73 643c 3a70 7bbb 9783 dd3b
000000a0: 9cac 813b 9620 a83b 9442 0d3c 1d8d 8dbb
000000b0: 23a4 db3b 2b9b 5bbc ffa7 bbbb 01e7 92bc
000000c0: 79de bb3c 808e d0bc 93a5 40bb 15dc 8dbc
000000d0: d468 6ebb 7b25 5bbb 2408 1abb e327 f1bb
000000e0: f020 f7bc 1ffc e7ba 7f05 ddbb 41f5 ad3b
000000f0: bdc8 1d3a 8c00 0d3c 9085 8bba f654 c93c
00000100: 5af9 29bc 7922 50ba 4a70 afb9 0f2c bcbc
00000110: 9ca9 273c 7b91 c03b 8504 6c3c d364 44bc
00000120: 2933 aaba baab b23c 34a6 acbb 82d4 8fbc
00000130: 98b4 713b ccfd 24bc ad5c 2ebc c9ee aabb
00000140: 3421 d4bc f4d8 ecbb 9f8e 90bc 2e2e c3bb
00000150: f410 f0ba f171 f7ba 8202 87bc 4833 943b
00000160: eee8 9237 a1e2 beba 17ea 38bc 1f7a 98bb
00000170: 5095 183c a12a 92bb d9b7 60bc 8f33 483c
00000180: d973 72bb 0d2d 683c 270c 00bc 32da 9d3c
00000190: 353d 4c3b 9b7c 27bc 6e93 2e3c 2bb4 58bb
000001a0: f543 77bc ff27 f3ba 6e1a 40bc 8e31 8ebb
000001b0: 54ee 0b3b bb4f 383c cbe1 f6ba dba0 8abc
000001c0: 0366 6abb 8d33 a03b 8af5 353b 5501 8e3b
000001d0: ff2d bcbb 68ab 0ebc d148 933c 174e 653c
000001e0: fc28 51bb 130d 1abc 8124 5cbc dc64 adbc
000001f0: a710 f43b 34d9 423c a385 cbbc e07f 48bc

running_var f4 [128]
2.0001638 1.1062216 2.4566958 1.2160163 0.74010706 2.4323204 2.3769317 2.7426007
1.5468117 1.3090112 1.2774793 1.2529554 1.9343917 0.72696215 2.9090886 1.2589083
1.7542548 2.29247 1.9562231 1.721159 0.7571035 0.75729555 2.4363139 1.4191842
1.1181568 1.2055807 1.3879805 1.9811885 1.475128 1.1544509 1.5169237 0.5364914
1.2202461 2.4776378 1.8651385 1.1646316 1.4299884 1.4245187 0.7635905 1.758094
1.0755459 1.0088581 0.80802673 0.9676391 1.3130085 2.804201 1.5484456 1.1331965
2.4805653 2.2462082 0.80655205 4.6060805 1.1452667 1.2349075 0.844484 0.9000163
2.1015425 1.2315876 0.52865887 1.5399126 0.61941 2.1816993 1.2125312 1.985842
1.6850932 0.6851033 1.6298676 3.0765247 1.5791732 1.2600807 1.9033968 2.4392908
1.7524511 2.9856346 0.79086256 3.1729717 1.5190682 3.1787798 1.3556057 1.3438472
3.955207 1.3189912 1.1697515 2.141985 1.4468857 0.2982277 2.3941746 1.702374
1.194601 1.4983342 0.7701223 2.593555 1.6853062 0.61503106 0.69359833 1.3799254
1.2543272 1.6184158 1.771774 1.966989 0.60647225 2.459527 1.7801684 0.866905
1.7216914 0.6957603 2.8922536 1.2150449 0.85094285 1.6982766 2.0909493 2.0000403
1.2622102 0.5727755 1.1821462 2.0375273 0.75032806 1.1968923 1.3365015 1.270595
1.4413582 0.7973616 1.8478678 3.5169244 1.1156485 1.5885834 2.399996 2.272462
00000000: af02 0040 ab98 8d3f 813a 1d40 6ca6 9b3f
00000010: a877 3d3f 23ab 1b40 a61f 1840 c586 2f40
00000020: edfd c53f ae8d a73f 7184 a33f d860 a03f
00000030: 269a f73f 311a 3a3f 822e 3a40 e823 a13f
00000040: 6c8b e03f d4b7 1240 8565 fa3f f04e dc3f
00000050: 89d1 413f 1fde 413f 91ec 1b40 d4a7 b53f
00000060: c31f 8f3f 7850 9a3f 58a9 b13f 9697 fd3f
00000070: ffd0 bc3f 0cc5 933f 8e2a c23f 8057 093f
00000080: 0631 9c3f 9e91 1e40 dcbc ee3f a612 953f
00000090: dc09 b73f a156 b63f ab7a 433f 3909 e13f
000000a0: 7dab 893f 4322 813f d7da 4e3f 32b7 773f
000000b0: aa10 a83f 0778 3340 7733 c63f 950c 913f
000000c0: 95c1 1e40 e0c1 0f40 327a 4e3f 0365 9340
000000d0: 1998 923f 7311 9e3f 1a30 583f 7867 663f
000000e0: ac7f 0640 aaa4 9d3f 3056 073f db1b c53f
000000f0: a791 1e3f f6a0 0b40 3934 9b3f 1230 fe3f
00000100: 22b1 d73f ee62 2f3f 809f d03f c8e5 4440
00000110: 5922 ca3f 534a a13f 82a2 f33f 571d 1c40
00000120: 5150 e03f a314 3f40 f875 4a3f f811 4b40
00000130: d470 c23f 2171 4b40 7d84 ad3f 2f03 ac3f
00000140: 1d22 7d40 b4d4 a83f 6bba 953f 4816 0940
00000150: 8d33 b93f 4db1 983e 283a 1940 64e7 d93f
00000160: b0e8 983f 6ac9 bf3f bc26 453f cefc 2540
00000170: 1db8 d73f ad72 1d3f a98f 313f 65a1 b03f
00000180: cb8d a03f 4028 cf3f 7ec9 e23f 4cc6 fb3f
00000190: c441 1b3f e468 1d40 8fdc e33f 7ced 5d3f
000001a0: 6260 dc3f 591d 323f af1a 3940 9786 9b3f
000001b0: 64d7 593f 2161 d93f 1dd2 0540 a900 0040
000001c0: 1b90 a13f 6aa1 123f 9150 973f d966 0240
000001d0: 8015 403f c433 993f 7b12 ab3f dba2 a23f
000001e0: 6d7e b83f e41f 4c3f ef86 ec3f 4a15 6140
000001f0: 92cd 8e3f b356 cb3f 8999 1940 0470 1140

weight f4 [128, 128, 2]
0.18706532 0.30214503 0.02682254 0.016634045 -0.10022927 0.05529123 -0.09108449 -0.07841863
0.021774642 -0.013768339 -0.05605202 -0.0014392379 -0.038087163 -0.09100557 0.07898965 -0.0049562864
-0.23777021 -0.23489869 0.04920848 0.014556585 0.04566577 0.07098956 -0.05522878 -0.037829142
0.20687743 0.23119041 0.11957196 0.0881105 0.10205427 0.11941456 -0.08493855 -0.07812309
0.12802622 0.11724422 -0.012882314 0.05205907 -0.054801326 -0.026526064 -0.07079272 -0.015976256
0.025739176 0.014340419 0.061422743 0.082889915 0.019784326 0.020273495 -0.11114087 -0.1640918
-0.087891236 -0.0161106 -0.017934036 -0.036771078 -0.109799065 -0.07668341 -0.054091223 -0.04123623
-0.0528536 -0.1904282 0.12910804 0.14922124 0.031636916 0.0068382127 0.054687638 0.04119689
0.11965418 0.15501118 -0.035968736 0.049145754 0.15941058 0.10863087 -0.055253975 -0.006344908
-0.10093017 -0.14894515 0.007890345 0.018753586 0.038106706 0.024033872 -0.13522583 -0.14755833
0.108342566 0.07874283 0.046905655 0.044052336 0.06259048 0.06979596 -0.023482522 -0.060038842
-0.082724646 -0.10471066 -0.09600176 -0.06782235 0.011395727 -0.062156316 -0.010684959 0.0011423297
0.060801804 0.035295058 -0.020772725 -0.011568384 0.02095801 0.005505386 -0.00080765155 0.03970534
-0.06043797 -0.06042371 -0.04705665 -0.09139847 -0.026908325 -0.0248592 -0.0038647526 -0.0065283505
-0.0046700942 -0.014100669 0.048012853 -0.010900522 0.06945156 0.053964067 -0.12522052 -0.060195673
0.04835239 0.03330848 -0.037635744 0.0030851266 0.037241668 0.0612206 0.127148 0.15374205
-0.08971696 -0.08566397 -0.0028907422 0.11521456 -0.3371894 -0.40588868 -0.012258414 -0.008856862
0.1156205 0.09690341 -0.11193053 -0.15193498 -0.07857677 -0.11259581 0.11885233 0.10550664
0.041515943 0.046510596 0.014497463 0.14274879 -0.019086102 -0.05697175 0.019742494 4.962782e-05
-0.10819775 -0.17566001 -0.03890262 -0.06634809 -0.033627078 -0.064608306 0.06748907 0.016609987
-0.009800922 -0.0039892974 0.124140024 0.13803531 0.08134603 0.08587124 0.088210195 0.08535794
-0.06438466 -0.046742164 -0.02167973 -0.01521109 -0.036282144 -0.02797206 -0.19694611 -0.22824806
0.033756632 0.027339663 0.06409742 0.13097546 -0.08761607 -0.13579752 -0.021773797 -0.03355219
-0.10172671 -0.10039072 0.060718894 0.009910057 -0.07020102 -0.065738864 -0.014301835 -0.0510733
-0.10375066 -0.13456471 0.031792946 0.08596186 0.015817093 0.06516033 -0.095963545 7.695787e-06
0.019440228 0.021172734 -0.081460096 -0.07482904 0.12509817 0.19994204 0.017254528 0.065197855
-0.12580863 -0.049927525 -0.12421654 -0.1038911 0.07675261 0.033268258 0.066868514 -0.011442311
-0.002676571 0.0049272887 0.076250434 0.1404302 0.016575359 -0.03270987 0.052104115 0.00014948529
0.12921198 0.048433166 -0.055914648 -0.015853021 -0.08460331 -0.08904623 -0.04243946 -0.049940746
-0.06930154 -0.069726095 -0.14107086 -0.08927604 0.09714608 0.084400736 0.033819616 0.08233301
-0.15953664 -0.16395926 0.05969343 0.0397113 -0.07525329 -0.14797102 -0.03293279 0.0066092317
-0.07644981 -0.11633826 -0.02417467 -0.027429832 -0.014841885 -0.021151468 -0.12143185 -0.2181671
00000000: 0d8e 3f3e c1b2 9a3e f2ba db3c 1f44 883c
00000010: 0145 cdbd 0f79 623d 818a babd f299 a0bd
00000020: bc60 b23c 9994 61bc ce96 65bd cfa4 bcba
00000030: 4901 1cbd 2161 babd 53c5 a13d 5868 a2bb
00000040: 097a 73be 4889 70be d58e 493d be7e 6e3c
00000050: 080c 3b3d f962 913d 9337 62bd bbf2 1abd
00000060: add7 533e 2ebd 6c3e 25e2 f43d 4773 b43d
00000070: d401 d13d 9f8f f43d 43f4 adbd 00ff 9fbd
00000080: 4e19 033e bd1d f03d 5710 53bc e43b 553d
00000090: 5b77 60bd 304d d9bc c6fb 90bd a3e0 82bc
000000a0: f7da d23c 14f4 6a3c 6a96 7b3d 30c2 a93d
000000b0: bd12 a23c 9a14 a63c d39d e3bd ae07 28be
000000c0: 5200 b4bd 61fa 83bc 66ea 92bc 459d 16bd
000000d0: 55de e0bd 310c 9dbd c28e 5dbd 52e7 28bd
000000e0: 047d 58bd 9cff 42be e634 043e 74cd 183e
000000f0: b695 013d 1613 e03b 2500 603d 12be 283d
00000100: 400d f53d 40bb 1e3e f453 13bd 0f4d 493d
00000110: 873c 233e dd79 de3d fe51 62bd f2e8 cfbb
00000120: 7ab4 cebd 1485 18be 8146 013c 1fa1 993c
00000130: c715 1c3d afe2 c43c a478 0abe 8819 17be
00000140: b5e2 dd3d ec43 a13d 2520 403d 3970 343d
00000150: 702f 803d 2ff1 8e3d 6b5e c0bc 4aeb 75bd
00000160: 8a6b a9bd 8b72 d6bd 929c c4bd 72e6 8abd
00000170: 25b5 3a3c 9f97 7ebd f70f 2fbc 39ba 953a
00000180: 500b 793d 8d91 103d 902b aabc 5289 3dbc
00000190: 22b0 ab3c 8666 b43b 94b8 53ba 11a2 223d
000001a0: ce8d 77bd da7e 77bd 79be 40bd 1f2f bbbd
000001b0: d96e dcbc 85a5 cbbc ca47 7dbb c6eb d5bb
000001c0: 9707 99bb 7e06 67bc 20a9 443d 1a98 32bc
000001d0: 9f3c 8e3d 6d09 5d3d cf39 00be bd8f 76bd
000001e0: 280d 463d 796e 083d f027 1abd d62f 4a3b
000001f0: b88a 183d 74c2 7a3d 1633 023e 8e6e 1d3e
00000200: 87bd b7bd 9770 afbd 9b72 3dbb 9cf5 eb3d
00000210: 17a4 acbe a4d0 cfbe 84d7 48bc 5f1c 11bc
00000220: 71ca ec3d 4c75 c63d d53b e5bd d894 1bbe
00000230: dcec a0bd a298 e6bd da68 f33d de13 d83d
00000240: 9f0c 2a3d e581 3e3d c486 6d3c bd2c 123e
00000250: 755a 9cbc 365b 69bd 03bb a13c 7727 5038
00000260: c896 ddbd 38e0 33be 5b58 1fbd 82e1 87bd
00000270: 8cbc 09bd 5c51 84bd b637 8a3d ab11 883c
00000280: 0c94 20bc a7b8 82bb 203d fe3d 2159 0d3e
00000290: bf98 a63d 43dd af3d 8ca7 b43d 25d0 ae3d
000002a0: 1bdc 83bd b674 3fbd b099 b1bc f037 79bc
000002b0: 969c 14bd a925 e5bc 3eac 49be dcb9 69be
000002c0: 6544 0a3d 6ef7 df3c 8245 833d 6e1e 063e
000002d0: 0e70 b3bd 810e 0bbe f65e b2bc 056e 09bd
000002e0: 1856 d0bd a699 cdbd 60b4 783d cb5d 223c
000002f0: 8dc5 8fbd 19a2 86bd 3e52 6abc 3d32 51bd
00000300: 3a7b d4bd 55cb 09be 5239 023d c60c b03d
00000310: d992 813c c772 853d 8988 c4bd 271d 0137
00000320: 1d41 9f3c 7172 ad3c 8dd4 a6bd f83f 99bd
00000330: bc19 003e 9bbd 4c3e 5e59 8d3c 7486 853d
00000340: fad3 00be ce80 4cbd 3e65 febd dbc4 d4bd
00000350: 7930 9d3d 4c44 083d 5cf2 883d 8878 3bbc
00000360: 6969 2fbb 1875 a13b 3029 9c3d efcc 0f3e
00000370: 0cc9 873c c9fa 05bd 206b 553d 27bf 1c39
00000380: 2550 043e db61 463d c206 65bd 32de 81bc
00000390: 8044 adbd df5d b6bd 00d5 2dbd ab8e 4cbd
000003a0: f7ed 8dbd 8ecc 8ebd e174 10be 5bd6 b6bd
000003b0: 86f4 c63d 4bda ac3d 7086 0a3d 369e a83d
000003c0: 935d 23be f0e4 27be 1981 743d 51a8 223d
000003d0: 661e 9abd b785 17be 89e4 06bd 4192 d83b
000003e0: b891 9cbd c142 eebd f509 c6bc 87b4 e0bc
000003f0: 612b 73bc d845 adbc 43b1 f8bd 3267 5fbe

bias f4 [128]
-4.1821395e-06 2.0062487e-06 6.6996627e-06 9.58896e-07 2.811256e-06 9.878902e-07 1.7646355e-06 -9.95899e-07
6.3048014e-07 -1.3998857e-06 -8.428083e-07 -3.316202e-07 1.7963208e-07 -2.654702e-06 6.931861e-07 2.9005417e-07
9.848436e-08 2.7954345e-06 7.4831996e-07 1.3766202e-06 1.4222168e-06 -9.388978e-08 -4.7233067e-07 -1.18620235e-07
1.14866225e-07 -1.5133144e-06 -1.0582619e-06 4.1484714e-07 -1.634935e-06 8.854567e-07 1.1277355e-06 4.415319e-06
-6.528999e-07 -7.6315456e-07 1.1407318e-06 -1.480713e-06 -1.3765214e-06 -4.0654818e-08 1.5145195e-06 2.0767577e-06
9.11582e-07 -1.0700544e-06 4.5651984e-07 9.989786e-07 1.9719446e-06 -6.0616054e-07 -6.8919576e-07 -8.380709e-08
3.8135904e-06 3.27982e-07 -3.2544256e-07 1.4317825e-06 2.7710385e-07 8.194283e-07 -2.0075215e-06 7.8106467e-07
6.060151e-08 5.483619e-07 -1.1532064e-06 1.2085799e-08 -6.335293e-07 -5.050001e-07 -8.356802e-07 -1.732821e-08
-1.8812822e-06 -1.5264724e-06 -7.9511636e-07 -1.7580093e-06 2.9402847e-07 1.2384166e-06 -8.591965e-07 1.3987894e-06
3.520993e-07 -1.6516706e-06 -1.1250924e-06 -1.6810185e-06 4.6765854e-07 1.49532e-07 3.2047413e-07 -2.7942235e-07
5.5037435e-07 2.4262533e-07 1.0872883e-06 -1.068659e-06 -9.628608e-07 -1.0363243e-06 2.9987418e-06 -4.4664185e-07
-1.5620606e-06 8.976891e-07 -1.2126684e-06 -6.0585893e-07 2.1277494e-06 1.238491e-06 -4.833022e-06 -3.7531828e-07
-1.9110131e-07 -2.3785099e-06 -2.8344536e-07 -5.1699523e-08 6.208538e-07 1.5413609e-06 1.6901449e-06 -1.1484275e-06
-4.946016e-07 1.4984139e-06 -7.250184e-07 -1.0619268e-06 1.6561917e-06 -1.0131561e-06 -8.025524e-07 -1.2930003e-06
-2.9743298e-06 6.665065e-07 -3.2773464e-06 -1.3957132e-06 2.5439792e-07 -9.1834625e-07 2.2136584e-07 -4.672112e-07
1.688033e-06 4.5915144e-07 1.7408998e-06 7.4569726e-07 -5.936597e-07 -1.4356949e-06 9.700689e-07 -4.5872054e-07
00000000: 4e54 8cb6 17a3 0636 aacd e036 6ab3 8035
00000010: 03a9 3c36 a697 8435 6ad8 ec35 d4aa 85b5
00000020: 443e 2935 b5e3 bbb5 583d 62b5 8909 b2b4
00000030: e4e0 4034 6f27 32b6 6313 3a35 beb8 9b34
00000040: 597e d333 3399 3b36 28e0 4835 4fc4 b835
00000050: ffe2 be35 74a0 c9b3 a294 fdb4 2abc feb3
00000060: 60ac f633 161d cbb5 9a09 8eb5 28b8 de34
00000070: f06f dbb5 1fb0 6d35 b25c 9735 4d27 9436
00000080: f142 2fb5 95db 4cb5 3f1b 9935 e9bc c6b5
00000090: eac0 b8b5 729c 2eb3 7e46 cb35 6d5e 0b36
000000a0: 70b3 7435 ca9e 8fb5 9c17 f534 a514 8635
000000b0: c055 0436 09b7 22b5 2c01 39b5 6ff9 b3b3
000000c0: fcec 7f36 8115 b034 7cb8 aeb4 ac2b c035
000000d0: ddc4 9434 aff6 5b35 f5b8 06b6 5baa 5135
000000e0: 0824 8233 2533 1335 dfc7 9ab5 e8a1 4f32
000000f0: cd0f 2ab5 588f 07b5 8253 60b5 23d9 94b2
00000100: 5d80 fcb5 31e1 ccb5 fb6f 55b5 bdf4 ebb5
00000110: f7da 9d34 ac37 a635 89a3 66b5 0abe bb35
00000120: 2908 bd34 f8ae ddb5 e101 97b5 5b9f e1b5
00000130: 8012 fb34 0b8f 2034 a10d ac34 8403 96b4
00000140: 70bd 1335 2c42 8234 f1ee 9135 d86e 8fb5
00000150: a53b 81b5 d517 8bb5 fe3d 4936 fdc9 efb4
00000160: fea7 d1b5 baf8 7035 f8c2 a2b5 4fa2 22b5
00000170: 75ca 0e36 3a3a a635 582b a2b6 5a7f c9b4
00000180: 8731 4db4 7d9e 1fb6 6f2c 98b4 3a0c 5eb3
00000190: c0a8 2635 c2e0 ce35 f0d8 e235 ab23 9ab5
000001a0: c3c4 04b5 1c1d c935 e39e 42b5 8787 8eb5
000001b0: 504a de35 c7fb 87b5 fb6e 57b5 278b adb5
000001c0: 999a 47b6 fae9 3235 62f0 5bb6 5754 bbb5
000001d0: 2f94 8834 4684 76b5 94b0 6d34 05d5 fab4
000001e0: 5f90 e235 4b81 f634 dda8 e935 ed2b 4835
000001f0: fc5b 1fb5 1ab2 c0b5 5033 8235 1246 f6b4

weight f4 [128]
0.73591185 0.61465985 1.0645859 0.49787134 0.85498685 0.53733695 0.45825222 0.6154508
0.54134697 0.6533451 0.56434757 0.7297155 0.5865926 1.0251249 1.1278481 0.99123824
0.47824827 0.85774076 0.5733431 0.42769033 0.41406026 0.6282674 0.87448305 0.6523377
0.6440871 0.51292217 0.6899087 0.84428394 0.34532493 0.7885956 0.60007846 0.731409
0.71223086 1.2183348 0.50852025 0.7214235 0.33550903 0.49398765 0.4021449 0.5074736
0.73088235 0.6853107 0.30558333 0.1883375 0.32950494 0.33309028 0.6668399 0.5451802
0.7291565 0.5602233 0.26502138 1.0301661 0.43155858 0.8985457 0.781089 0.76395166
0.353317 0.73290056 0.65978754 0.5324585 0.6103009 0.40744966 0.9913086 0.5931602
0.8564966 0.6194834 0.67611974 0.78505754 1.362228 0.41158625 0.49005896 0.5642459
0.14188288 0.7423326 0.4218596 0.89918 0.40414107 0.800124 0.93820584 0.7525975
0.34109843 0.32336253 0.8889178 0.20990528 0.3264606 0.7700934 0.8375766 0.5940533
0.26538876 0.6713503 0.64355356 0.38554478 0.6877225 0.4814744 0.8317069 0.5102743
0.736747 0.8061365 0.35432783 0.60312647 0.6017972 0.29601437 0.39273033 0.60003936
0.3613108 0.7379815 0.25295448 0.7009195 0.5623892 1.14325 0.39217785 1.0239778
0.708685 0.98023754 0.97418 0.46610504 0.6212263 0.38698465 0.49343434 0.4657469
0.7440581 0.6696525 0.66490084 0.70180744 0.5681289 0.55888766 0.52720636 0.8991925
00000000: b864 3c3f 595a 1d3f 5a44 883f fee8 fe3e
00000010: 6be0 5a3f ea8e 093f 09a0 ea3e 2f8e 1d3f
00000020: b795 0a3f a041 273f 1579 103f a3ce 3a3f
00000030: ef2a 163f 4b37 833f 545d 903f cac1 7d3f
00000040: f5dc f43e e694 5b3f 9dc6 123f 3afa da3e
00000050: b5ff d33e 22d6 203f 1fde 5f3f 9aff 263f
00000060: e4e2 243f de4e 033f db9d 303f fe22 583f
00000070: 6ece b03e 67e1 493f be9e 193f 9f3d 3b3f
00000080: c354 363f 65f2 9b3f 622e 023f 36af 383f
00000090: d7c7 ab3e f3eb fc3e f0e5 cd3e cae9 013f
000000a0: 1b1b 3b3f 8670 2f3f 6b75 9c3e 8cdb 403e
000000b0: dfb4 a83e cf8a aa3e 05b6 2a3f ee90 0b3f
000000c0: 00aa 3a3f cb6a 0f3f e2b0 873e 7cdc 833f
000000d0: 3ff5 dc3e 1707 663f 73f5 473f 5692 433f
000000e0: f7e5 b43e 5f9f 3b3f d6e7 283f 334f 083f
000000f0: ae3c 1c3f 3e9d d03e 67c6 7d3f 59d9 173f
00000100: 5c43 5b3f 7796 1e3f 2f16 2d3f 88f9 483f
00000110: 7d5d ae3f 6fbb d23e 02e9 fa3e 6b72 103f
00000120: bf49 113e 8209 3e3f fbfd d73e a930 663f
00000130: 94eb ce3e edd4 4c3f 422e 703f 3baa 403f
00000140: 74a4 ae3e c68f a53e 1e90 633f 69f1 563e
00000150: d825 a73e d724 453f 6c6b 563f e113 183f
00000160: 09e1 873e 9ddd 2b3f edbf 243f 2066 c53e
00000170: 950e 303f d083 f63e beea 543f 56a1 023f
00000180: 749b 3c3f f65e 4e3f 756a b53e 7f66 1a3f
00000190: 620f 1a3f 328f 973e f313 c93e 2e9c 193f
000001a0: bbfd b83e 5bec 3c3f 4083 813e 766f 333f
000001b0: bdf8 0f3f 0456 923f 89cb c83e b411 833f
000001c0: 616c 353f d9f0 7a3f dc63 793f 52a5 ee3e
000001d0: b008 1f3f da22 c63e 6da3 fc3e 6176 ee3e
000001e0: 977a 3e3f 596e 2b3f f136 2a3f a7a9 333f
000001f0: e570 113f 4313 0f3f fff6 063f 7b31 663f

bias f4 [128]
-0.3718537 -0.37540403 -0.14708972 0.024009993 -0.0126923015 -0.11314858 -0.20742758 -0.21286708
-0.18373802 -0.121619195 -0.05050427 -0.06945458 -0.22017744 0.010968147 -0.009708782 -0.25113332
-0.10128615 -0.20281161 -0.018071393 -0.075840145 -0.18245989 -0.10245561 -0.099428505 -0.09485902
-0.11062129 -0.04393889 -0.006064666 -0.32813075 -0.11048242 0.076475404 0.058912843 -0.067242056
0.024991175 -0.20590313 -0.02065358 -0.0074863886 -0.15782948 -0.21699359 -0.16441487 -0.19401968
-0.16730633 -0.05009646 -0.117074065 -0.196125 -0.14879707 -0.097563975 -0.03932727 -0.17577812
-0.0055408324 -0.07489251 -0.11474205 -0.19781245 -0.1188776 -0.05711517 0.13300341 -0.0239281
-0.09644324 -0.25730348 -0.09215205 -0.089199305 -0.07706516 -0.10081579 -0.096614465 -0.095848344
-0.09932583 -0.27730083 0.08949671 -0.3642173 0.112410225 -0.22874974 -0.15718094 -0.18388754
-0.10077238 -0.08384031 -0.24642435 -0.16997442 -0.091398284 -0.06803877 -0.076600865 -0.1311727
-0.1436479 -0.2846977 -0.066580504 -0.20310163 -0.13510053 -0.003974205 -0.30263042 -0.0144746555
-0.17026778 -0.06583729 -0.15379825 -0.05884719 -0.128539 -0.2108233 -0.009073639 0.038057186
-0.10381679 -0.359308 -0.23631625 -0.1703893 -0.06887609 -0.09374003 -0.18245085 -0.07020839
-0.04335558 -0.4068681 -0.071204536 -0.16612121 -0.21174742 -0.0753581 -0.043030925 -0.30005026
-0.11223566 0.04526604 -0.033849332 -0.2562331 -0.0028095844 -0.06822131 -0.013474112 -0.117835045
-0.09888559 0.028135005 0.030058926 -0.13225994 -0.20781532 -0.17635745 -0.08965218 -0.17828116
00000000: 9c63 bebe f534 c0be b09e 16be 9bb0 c43c
00000010: 5ff3 4fbc 71ba e7bd e567 54be d4f9 59be
00000020: d225 3cbe 7c13 f9bd 91dd 4ebd 343e 8ebd
00000030: 3276 61be beb3 333c 9511 1fbc 8c94 80be
00000040: 1d6f cfbd d9ad 4fbe 750a 94bc 1452 9bbd
00000050: c4d6 3abe 3fd4 d1bd 2ca1 cbbd 7245 c2bd
00000060: 6a8d e2bd 44f9 33bd 1bba c6bb c100 a8be
00000070: 9b44 e2bd 239f 9c3d 984e 713d 34b6 89bd
00000080: 4bba cc3c 45d8 52be b231 a9bc 6150 f5bb
00000090: 0d9e 21be 9133 5ebe 5f5c 28be 18ad 46be
000000a0: 5a52 2bbe f231 4dbd 87c4 efbd fed4 48be
000000b0: 425e 18be 9fcf c7bd a215 21bd 2eff 33be
000000c0: df8f b5bb 3f61 99bd e1fd eabd 598f 4abe
000000d0: 1976 f3bd 99f1 69bd 0c32 083e dd04 c4bc
000000e0: 0984 c5bd 48bd 83be 37ba bcbd 20ae b6bd
000000f0: 57d4 9dbd 8278 cebd cedd c5bd 234c c4bd
00000100: 576b cbbd 60fa 8dbe 0d4a b73d b17a babe
00000110: 5537 e63d 5f3d 6abe 0af4 20be 044d 3cbe
00000120: c061 cebd 78b4 abbd aa56 7cbe c60d 2ebe
00000130: 062f bbbd e957 8bbd eae0 9cbd 2352 06be
00000140: 6f18 13be e6c3 91be 5c5b 88bd e0f9 4fbe
00000150: cb57 0abe 0c3a 82bb 60f2 9abe 1b27 6dbc
00000160: ad5a 2ebe b3d5 86bd 4a7d 1dbe c009 71bd
00000170: ba9f 03be 10e2 57be 9aa9 14bc dae1 1b3d
00000180: e69d d4bd 38f7 b7be e3fc 71be 887a 2ebe
00000190: e80e 8dbd c6fa bfbd 65d4 3abe 6bc9 8fbd
000001a0: 9f95 31bd 0451 d0be afd3 91bd ae1b 2abe
000001b0: 51d4 58be 5955 9abd 3241 30bd 30a0 99be
000001c0: cfdb e5bd e268 393d 99a5 0abd fc30 83be
000001d0: 0121 38bb 9db7 8bbd 86c2 5cbc 8053 f1bd
000001e0: 8784 cabd 627b e63c 233e f63c 266f 07be
000001f0: 8acd 54be 0c97 34be 909b b7bd 568f 36be

running_mean f4 [128]
-0.9279734 0.48805425 -0.30223647 -0.13931064 -0.5026009 0.10068657 0.7024756 1.7490278
1.1633806 -0.41736087 -0.77091485 -0.6955451 1.5541168 -0.36772278 1.1929541 2.537962
-0.9658336 0.8709232 -1.2606792 0.26517624 -0.10952232 0.09774226 0.17066208 -1.1288748
0.52110124 -0.7433026 -0.98677635 0.8318896 0.56368095 -0.71766967 -1.5665624 0.8344265
-0.87217766 2.5585132 -0.7311389 -0.86651963 0.11963217 0.37568647 0.05901454 -0.08435345
1.2682704 0.17415059 -0.61339414 -0.029465511 -0.74404114 -0.5740542 -0.38246942 0.6728737
-0.7199683 -0.2484278 -1.5839405 2.5728695 -0.011413764 1.5863461 -1.3467431 -0.09980228
-0.15264066 0.6654422 -1.5891433 -0.6465244 -1.2460366 0.07652919 0.9633642 -0.3300625
1.5097939 -0.24808118 -0.40884164 -0.0036994163 0.7963736 -0.6590136 0.38335553 0.010091092
-0.21276191 -1.4762846 0.36675668 1.6566377 -0.92186534 0.6484846 0.69833666 1.0432963
0.5005794 0.14573176 0.7673605 1.1044496 0.37162316 -0.17022213 -0.6751001 -1.3504287
-0.33612758 -1.2888352 -0.003987927 -0.1468721 1.6934614 -0.5054533 -0.88914436 -1.2336862
0.2979228 -0.30168715 0.66830325 1.0416993 -0.65189636 -0.48262614 -0.48059702 0.36377525
0.81752604 -0.023426179 0.29018483 -0.2390873 0.11829944 0.889447 0.0046025096 -0.6848594
1.0258917 -2.476401 0.7517158 0.5957477 0.2428389 -1.638926 -0.22809173 -0.6078633
0.6533136 -1.0544565 -0.7888521 0.48936656 -0.4125888 0.10776329 -0.699371 2.1897132
00000000: aa8f 6dbf 3fe2 f93e bdbe 9abe 73a7 0ebe
00000010: 74aa 00bf c334 ce3d 71d5 333f 25e0 df3f
00000020: a8e9 943f 53b0 d5be ad5a 45bf 3e0f 32bf
00000030: 4ded c63f 2946 bcbe b8b2 983f f86d 2240
00000040: df40 77bf d3f4 5e3f f05d a1bf 2ec5 873e
00000050: 3d4d e0bd 182d c83d 0ac2 2e3e f87e 90bf
00000060: e466 053f 1449 3ebf 609d 7cbf b8f6 543f
00000070: 654d 103f 33b9 37bf 1e85 c8bf fa9c 553f
00000080: 0947 5fbf aebe 2340 eb2b 3bbf 3bd4 5dbf
00000090: b601 f53d fa59 c03e 3bb9 713d 80c1 acbd
000000a0: af56 a23f 8854 323e 6607 1dbf a861 f1bc
000000b0: 7b79 3ebf 37f5 12bf 08d3 c3be 7341 2c3f
000000c0: d84f 38bf db63 7ebe 90be cabf e5a9 2440
000000d0: cc00 3bbc 640d cb3f 1462 acbf 2365 ccbd
000000e0: d54d 1cbe 6c5a 2a3f 0c69 cbbf a082 25bf
000000f0: 217e 9fbf 56bb 9c3d 099f 763f f4fd a8be
00000100: ed40 c13f fe08 7ebe b153 d1be e871 72bb
00000110: 24df 4b3f 1eb5 28bf 2d47 c43e 1c55 253c
00000120: 42de 59be e5f6 bcbf 88c7 bb3e b40c d43f
00000130: 5eff 6bbf 1603 263f 31c6 323f bc8a 853f
00000140: f925 003f b53a 153e bd71 443f 9b5e 8d3f
00000150: 6445 be3e b64e 2ebe 5cd3 2cbf d9da acbf
00000160: ea18 acbe 8df8 a4bf 28ad 82bb a465 16be
00000170: 58c3 d83f 6365 01bf f79e 63bf 6ee9 9dbf
00000180: 5689 983e bd76 9abe ec15 2b3f 6756 853f
00000190: aee2 26bf c61a f7be d010 f6be c040 ba3e
000001a0: 6349 513f 42e8 bfbc 1b93 943e 4dd3 74be
000001b0: fa46 f23d ccb2 633f a6d0 963b f252 2fbf
000001c0: 6b50 833f 5b7d 1ec0 7270 403f ec82 183f
000001d0: c3aa 783e 54c8 d1bf e190 69be ee9c 1bbf
000001e0: 8f3f 273f 6ef8 86bf 36f2 49bf 418e fa3e
000001f0: d73e d3be 00b3 dc3d fa09 33bf 4324 0c40

running_var f4 [128]
2.563843 2.347103 3.7720065 1.6162355 4.2345767 0.73634857 1.1736025 2.5318048
1.5471677 1.1197084 2.7431362 2.785834 3.114127 6.537274 9.11102 3.7616339
1.6899816 4.355342 3.5312412 3.4415452 0.76912427 4.0543075 3.8903253 2.7240677
2.631095 2.1733396 2.151598 5.276245 0.64900786 5.063821 2.318475 2.39827
2.918691 7.7398148 2.550004 2.4660988 1.2562714 2.205159 1.418904 1.8508503
2.6682458 3.4731097 0.781314 0.3749796 0.94251317 1.2148257 2.8959444 1.191671
2.171445 1.8779986 2.7949762 3.69668 1.079053 2.1320972 4.1516895 3.4189885
1.1479712 3.719162 2.5064826 1.7002623 2.8803241 0.9477192 6.8583965 2.1725874
3.8913312 2.6660051 1.8839064 3.1583095 13.491848 1.3015801 0.9452167 1.1835529
0.36663672 2.5116837 1.2878458 4.5425525 1.0336348 4.1376667 4.4322305 2.8537824
0.99100614 1.0342003 6.6751842 1.3990153 0.6693504 1.7376008 4.31153 3.1243703
0.7070643 2.966809 2.3872852 1.4956634 2.2519608 1.1167383 3.413667 2.693576
1.5557466 3.7943087 0.8548284 1.8570762 2.8771982 1.6024215 1.1978005 2.4934218
1.1256397 2.47841 1.4610965 2.1173904 2.2738192 10.985586 1.7586198 5.965435
2.257983 6.267626 5.776603 1.4490547 2.6792476 2.7286973 1.9376953 1.6155277
3.3438861 2.9298644 2.8773832 2.86729 1.7934139 1.4391911 2.3346126 3.3686137
00000000: 0116 2440 f036 1640 8e68 7140 cee0 ce3f
00000010: a781 8740 5781 3c3f 9b38 963f 1709 2240
00000020: 9709 c63f 9b52 8f3f 8b8f 2f40 1b4b 3240
00000030: db4d 4740 5931 d140 bdc6 1141 9cbe 7040
00000040: 5151 d83f f65e 8b40 dbff 6140 4742 5c40
00000050: 54e5 443f e3bc 8140 17fb 7840 2057 2e40
00000060: dc63 2840 ff17 0b40 c8b3 0940 00d7 a840
00000070: 6125 263f d20a a240 e561 1440 417d 1940
00000080: d5cb 3a40 90ac f740 4433 2340 90d4 1d40
00000090: 80cd a03f 5321 0d40 a59e b53f aae8 ec3f
000000a0: 8ac4 2a40 6e47 5e40 3204 483f 53fd bf3e
000000b0: 8b48 713f 697f 9b3f 2757 3940 ad88 983f
000000c0: f4f8 0a40 4262 f03f e4e0 3240 6896 6c40
000000d0: 691e 8a3f 4874 0840 a4da 8440 b5d0 5a40
000000e0: b8f0 923f c006 6e40 366a 2040 32a2 d93f
000000f0: 3b57 3840 ba9d 723f fc77 db40 ac0b 0b40
00000100: 920b 7940 d49f 2a40 d823 f13f be21 4a40
00000110: 9cde 5741 2d9a a63f b9f9 713f a97e 973f
00000120: cfb7 bb3e 6dbf 2040 22d8 a43f 975c 9140
00000130: 254e 843f c467 8440 d5d4 8d40 5fa4 3640
00000140: 94b2 7d3f ad60 843f 1c9b d540 ef12 b33f
00000150: 8c5a 2b3f b469 de3f 0ef8 8940 aff5 4740
00000160: 2a02 353f 33e0 3d40 48c9 1840 e671 bf3f
00000170: 2020 1040 48f1 8e3f 8579 5a40 8d63 2c40
00000180: b422 c73f f4d5 7240 09d6 5a3f acb4 ed3f
00000190: 0424 3840 261c cd3f 8751 993f 3994 1f40
000001a0: f614 903f 459e 1e40 3605 bb3f 5383 0740
000001b0: 4186 1140 f6c4 2f41 741a e13f d8e4 be40
000001c0: cb82 1040 6490 c840 efd9 b840 a07a b93f
000001d0: cb78 2b40 faa2 2e40 6606 f83f 9dc9 ce3f
000001e0: 3b02 5640 e682 3b40 0c27 3840 ae81 3740
000001f0: 968e e53f 6a37 b83f 4b6a 1540 5e97 5740

weight_ih_l0 f4 [192, 128]
0.04234175 0.008343344 -0.033354152 -0.059772134 0.03684027 -0.030302487 -0.008016129 -0.077557795
-0.00031979845 0.004784365 0.0034791164 -0.00033916897 -0.06396443 0.0055694343 -0.011702531 0.03316478
0.028375654 -0.055266198 -0.022076266 -0.022968361 0.020809017 -0.04504746 -0.014677949 0.0062412694
-0.012808034 -0.019699182 -0.012712959 -0.027220262 0.0104917325 -0.036014635 -0.0055497773 -0.048320826
-0.035121173 -0.021837736 0.013205258 0.012469444 0.012740858 0.007705676 -0.009303258 0.01891006
-0.13135077 0.016418952 0.0150938 0.007065651 0.0015433427 0.00035622905 0.014682414 -0.013996399
0.015782582 0.0042154314 0.0022426166 0.04042469 -0.018498791 -0.10626508 -0.06597035 -0.017086606
0.01948077 0.0016617411 0.020002976 0.023732997 0.032315705 -0.029123537 0.006542662 0.02836286
0.040151052 0.018828569 -0.08198025 0.025189757 -0.02648492 -0.0038405836 -0.0154924095 0.021347327
0.0031137923 0.0042466414 0.015034144 -0.017921204 -0.00882957 -0.01890886 0.041137956 -0.068080194
-0.031225832 0.014439327 -0.012852171 0.0069304146 -0.0032171248 -0.06874285 0.016553953 -0.029443614
-0.011475283 -0.025334628 0.027853118 0.0012150557 0.018425751 0.007595423 -0.0013092072 -0.01445953
-0.065074 0.029250678 -0.010488532 -0.00873507 0.00045138973 0.007822158 0.030380217 -0.017670352
-0.027338196 0.005636815 0.0059749964 0.019846665 0.013067625 -0.0077737207 0.0074624545 0.012389111
-0.11471125 -0.0523936 -0.0091256425 -0.01719241 -0.011334895 0.024747442 -0.011388827 0.013311868
0.0010267005 -0.01789454 -0.01299164 0.003531423 -0.02558883 -0.015318509 0.0020881284 0.032481946
0.039277833 0.01429378 0.07244378 0.011191348 0.002437659 -0.017476259 0.012246553 0.009283146
0.02470245 0.0174777 0.0020986283 0.0029702776 -0.0036977804 0.017447772 -0.0016939038 0.009593615
0.048402753 -0.0042281644 0.0017283937 -0.010680336 -0.0065282458 0.012889775 -0.011298189 0.0018240245
-2.2470775e-05 -0.000341716 -0.002553977 -0.0009342737 0.0130641395 -0.005334154 0.0067726406 0.037739474
0.0011933 0.0024176193 -0.0046081827 0.011444403 0.00069357426 -0.005372443 0.007842272 -0.0073148245
-0.014594898 0.017496156 0.0056428704 0.0019178833 -0.005195028 0.0014378639 0.02918778 -0.019717565
0.041316487 -0.0041327663 -0.0041784896 0.009364018 0.008591713 -0.024641186 -0.020614875 -0.017057281
0.0034781876 0.012213455 -0.0055582263 0.010377784 -0.008724869 0.016527385 0.00021545528 -0.0038063112
-0.004374511 0.016528668 -0.0068911617 0.025026537 -0.0028838986 0.010875804 0.008493659 -0.0015101751
0.0045547527 0.030348446 0.008781539 0.009840155 -0.0023148903 -0.0064696316 0.0032295196 -0.006154036
-0.0011641107 -0.0010841398 -0.008290911 0.004492376 0.012854063 -0.004256066 0.025247907 -0.0014558386
0.005846693 0.0022254945 -0.003762174 0.000417518 0.011017479 0.002566388 0.008756122 0.0049234224
0.0010865047 0.029587395 0.0032363986 0.027699897 0.0029885974 0.0031587132 0.042280164 -0.0012099226
-0.006551502 0.009620118 0.004127187 0.0029871985 0.0017056591 4.340554e-05 -0.0034746192 0.019313658
-0.0071265185 -0.012150123 -0.008021645 0.0086654145 -0.0015419606 0.023666592 -0.00035611633 0.0033230095
0.0017052663 0.0039751926 -0.0043675667 -0.0072812433 0.0071769827 -0.0085868975 -0.0046103145 0.00655719
00000000: 8b6e 2d3d 85b2 083c 5d9e 08bd a0d3 74bd
00000010: d3e5 163d ec3c f8bc 1556 03bc 9fd6 9ebd
00000020: 9faa a7b9 2ac6 9c3b e301 643b 7dd2 b1b9
00000030: c8ff 82bd cd7f b63b f9bb 3fbc cbd7 073d
00000040: 0f74 e83c cf5e 62bd 49d9 b4bc 2528 bcbc
00000050: ac77 aa3c af83 38bd c87b 70bc 9083 cc3b
00000060: cad8 51bc 2e60 a1bc 044a 50bc 07fd debc
00000070: 84e5 2b3c 1584 13bd e8da b5bb 0fec 45bd
00000080: 38db 0fbd 0de5 b2bc de5a 583c a44c 4c3c
00000090: 08bf 503c e57f fc3b b16c 18bc 45e9 9a3c
000000a0: d180 06be 0a81 863c fc4b 773c fa86 e73b
000000b0: fd49 ca3a 41c4 ba39 828e 703c 2751 65bc
000000c0: 794a 813c 9a21 8a3b ddf8 123b 5c94 253d
000000d0: c78a 97bc 82a1 d9bd 761b 87bd 36f9 8bbc
000000e0: 2396 9f3c c7ce d93a 48dd a33c b46b c23c
000000f0: 795d 043d 7c94 eebc d463 d63b 3b59 e83c
00000100: 6e75 243d 5f3e 9a3c 43e5 a7bd c05a ce3c
00000110: e7f6 d8bc 4db2 7bbb e0d3 7dbc 97e0 ae3c
00000120: c410 4c3b 6927 8b3b c551 763c 7dcf 92bc
00000130: e7a9 10bc c1e6 9abc 4680 283d a16d 8bbd
00000140: 51cd ffbc ed92 6c3c ea91 52bc 8818 e33b
00000150: 66d6 52bb 0dc9 8cbd 289c 873c bc33 f1bc
00000160: d302 3cbc 918a cfbc 392c e43c 8142 9f3a
00000170: 9af1 963c 07e3 f83b b499 abba aae7 6cbc
00000180: 8445 85bd 1e9f ef3c 17d8 2bbc 8a1d 0fbc
00000190: 81a8 ec39 8228 003c efdf f83c 6ac1 90bc
000001a0: 5af4 dfbc 08b5 b83b e7c9 c33b 7995 a23c
000001b0: 9819 563c b2ba febb 9b87 f43b b3fb 4a3c
000001c0: bbed eabd ac9a 56bd b883 15bc 19d7 8cbc
000001d0: ffb5 39bc 26bb ca3c 3498 3abc 051a 5a3c
000001e0: 5a92 863a 9297 92bc e3da 54bc 726f 673b
000001f0: aa9f d1bc 7cfa 7abc fbd8 083b ca0b 053d
00000200: cbe1 203d 7530 6a3c 685d 943d ea5b 373c
00000210: 22c1 1f3b 5f2a 8fbc c4a5 483c 5618 183c
00000220: cb5c ca3c 652d 8f3c 2489 093b fda8 423b
00000230: 7656 72bb a1ee 8e3c fb05 deba 8a2e 1d3c
00000240: f741 463d 6a8c 8abb 458b e23a 93fc 2ebc
00000250: e5ea d5bb a32f 533c 0a1c 39bc 1b14 ef3a
00000260: 9f7f bcb7 5828 b3b9 a060 27bb 0cea 74ba
00000270: f90a 563c 20ca aebb 07ed dd3b b594 1a3d
00000280: 8168 9c3a ec70 1e3b 3d00 97bb 4e81 3b3c
00000290: fbd0 353a 510b b0bb df7c 003c 32b1 efbb
000002a0: 701f 6fbc 1954 8f3c d4e7 b83b 7c61 fb3a
000002b0: 0e3b aabb b576 bc3a 361b ef3c bb86 a1bc
000002c0: 7a3b 293d 286c 87bb b6eb 88bb 8a6b 193c
000002d0: 42c4 0c3c 50dc c9bc 87e0 a8bc b6bb 8bbc
000002e0: 4ef2 633b f11a 483c c821 b6bb 9507 2a3c
000002f0: c1f2 0ebc 7064 873c d6eb 6139 4e73 79bb
00000300: 0f58 8fbb 2167 873c 41cf e1bb 7404 cd3c
00000310: caff 3cbb 6e30 323c fd28 0b3c 11f1 c5ba
00000320: 0940 953b 4e9d f83c 72e0 0f3c 9a38 213c
00000330: 6ab5 17bb 34ff d3bb 59a6 533b cca7 c9bb
00000340: 1395 98ba b219 8eba 9ad6 07bc c834 933b
00000350: d999 523c 7876 8bbb b3d4 ce3c d6d1 beba
00000360: 9e95 bf3b 9ad9 113b ce8e 76bb 51e6 da39
00000370: a882 343c d930 283b d675 0f3c a954 a13b
00000380: 0c69 8e3a 4461 f23c c219 543b e5ea e23c
00000390: 58dc 433b 6a02 4f3b f72d 2d3d 4496 9eba
000003a0: fbad d6bb b39d 1d3c 5b3d 873b e0c4 433b
000003b0: 6c90 df3a 580e 3638 70b6 63bb ad37 9e3c
000003c0: 9285 e9bb 4f11 47bc 386d 03bc 62f9 0d3c
000003d0: 9d1b caba 71e0 c13c 20b5 bab9 d9c6 593b
000003e0: 3e83 df3a 5542 823b ce1d 8fbb 7f97 eebb
000003f0: e52c eb3b 0fb0 0cbc 1f12 97bb b2dd d63b
