Models/best_model-F2-CNNGRU.pt (torch, 389929 bytes, 17 tensors)

weight f4 [128, 19, 3]
00000000: d76b 88b9 a087 8ab9 d12d 7cb9 ddaf 2f36
00000010: b3f9 7737 4fb9 9e37 0090 47b7 e435 a1b7
00000020: 2bf7 d5b7 c451 2eb7 faf9 82b6 5082 19b6
00000030: 314c 3239 3b19 2839 3309 2739 db33 05b9
00000040: b221 22b9 58d4 2db9 2a49 7d38 7ef0 7c38
00000050: 7774 8838 2c8b 1338 0bb4 0538 c822 0638
00000060: 5afa a9b8 84d1 a1b8 500d 93b8 a2d0 0238
00000070: 522e 0838 c9ca 1338 777f a9b7 d0fb 02b8
00000080: 608f 0eb8 81bd a237 588c a337 9554 a237
00000090: d9f1 19b9 75fd 19b9 f501 1ab9 47cb 7636
000000a0: 8e8d 7936 9157 7736 1a00 f038 b4d1 f038
000000b0: 0937 f038 347c 9639 a2c3 3e3a 7279 c739
000000c0: dcd8 85b9 cedd b9b9 329f 85b9 57bd feb8
000000d0: 5c8e 1bb9 f157 92b9 4e4b d139 c647 bb39
000000e0: 1c6d ed39 af48 29ba 3b95 0eba 466c 41ba
000000f0: 4eb5 5ab9 2444 55b9 e47a 55b9 a069 f039
00000100: c281 dd39 f269 da39 a087 1539 0ff4 1239
00000110: 526c 0a39 480c 8d39 7ae0 9539 2023 9239
00000120: 8089 33b9 e4d6 8ab9 37e9 62b9 6e58 b8b9
00000130: aaf5 adb9 005a c3b9 f61c b839 50fa be39
00000140: 9d19 b639 a13a 38b9 fbef 30b9 1619 39b9
00000150: 7b58 193a ae97 053a 124f 163a 0617 1439
00000160: d92b 1539 147c 2139 bced b539 b14f 9c39
00000170: dadf ca39 dbe2 0cb9 a63c 0db9 7537 0db9
00000180: cf0a a4b8 1dc0 e4b8 c8a0 e5b8 76b7 44b8
00000190: ed6e 44b8 983e 44b8 8e24 4c3a 3215 1838
000001a0: 23ca 1e3a b72c 2db7 6bcd 9f38 f135 e635
000001b0: 2452 0f3a b225 693a b912 3a3b 712d aaba
000001c0: fe04 54ba 18bf a8ba eebb 7f3d 6e98 7ebd
000001d0: 4295 ed3d ba1f 78be 510d 1abe 0c63 dbbd
000001e0: 0d2c ffbd 7424 45bd 2b3f 0ebc 89e4 65bc
000001f0: 44c0 dbbe 0987 133e 6691 04bc b6e5 23bd
00000200: 2031 6a3e ce22 75bd 4d5c ebbd a146 a23c
00000210: 1ae2 adbd 5afb 9ebd 7822 1ebe f168 4a3c
00000220: d3b6 9abb 58e0 dcbc 6fa1 3dbc 941b 16bd
00000230: 68a3 35ba 11fd bbbc 6488 73bc 2b12 0dbd
00000240: cd45 b83d be54 8f3e f6c2 08be eb88 b13c
00000250: 7f2d c73c 4402 06bd db1e 6e3d d562 343d
00000260: 5711 803d 7f61 803c 5a16 383d a9f8 823c
00000270: 5b9f 16bd c0f2 2cbd ff33 2fbd e962 21bf
00000280: fbed 793f a05e 1abf 6148 6f3f 8c2f 5dbf
00000290: b120 3f3e 581b 43be 3bac 80be 62de 023f
000002a0: b0e0 a0be f9c6 04be e959 123f 6b03 ff37
000002b0: 5764 1838 263a d937 11c1 de35 a500 f536
000002c0: bc7a 6436 083e 77b2 752f 6eb2 242e 78b2
000002d0: a72f 28af 076b d1b0 f1d7 28ae 87f7 deb6
000002e0: b057 cab6 8b46 f5b6 704c a9b7 279c b5b7
000002f0: ba5e 9eb7 e3f9 9636 cec1 9a36 1bed aa36
00000300: 30b2 8f37 878d 8c37 e5f6 8c37 ed30 dfb5
00000310: 7c52 b3b5 26f3 97b5 7e65 11b4 f8e9 6132
00000320: de7d 84b3 b40e 7e36 fcbc 9736 eef4 9336
00000330: b8fe 5d35 32a8 5c35 28ab 5c35 0e48 31b7
00000340: 8a35 28b7 66a8 1eb7 e7b6 d737 e76a d637
00000350: 7a96 ce37 ca10 dab5 2c7d d9b5 b4eb dbb5
00000360: 3de6 09b9 5c69 3eb9 fec6 33b9 c3bf 3937
00000370: 18c2 a737 91bd 3738 e43c dc33 7389 6034
00000380: a549 9f33 1df6 e637 f849 2339 9329 91b9
00000390: 6e62 07bf 2349 1ebe 7134 76bd 95ec 833e
000003a0: 8baa 913e c06f 5b3e f69c 413e 2b82 4a3d
000003b0: 61b1 29be 6172 9b3e 2ba3 debc 1ee2 edbd
000003c0: 6093 aa3e 98d7 aa3e 5913 b73e 7dff 94bd
000003d0: 902e 8a3d 86fa cd3c f2ea 40bd 3d33 38bd
000003e0: 270a 5fbd 3dbd 293d 841b 3a3d d2b5 2d3d
000003f0: fd8b 46be 1691 49be b839 28be 5d6e 023e
-0.00026020288 -0.0002642246 -0.0002404966 2.6179398e-06 1.4780485e-05 1.8921359e-05 -1.1894852e-05 -1.921779e-05
-2.5506675e-05 -1.0390246e-05 -3.903403e-06 -2.2874628e-06 0.00017003786 0.00016031128 0.00015929788 -0.00012703186
-0.00015462076 -0.0001657767 6.038804e-05 6.0305458e-05 6.5066786e-05 3.5177145e-05 3.187735e-05 3.1980482e-05
-8.1051796e-05 -7.7161036e-05 -7.011986e-05 3.118872e-05 3.2468066e-05 3.523639e-05 -2.0205725e-05 -3.1228934e-05
-3.3988967e-05 1.940015e-05 1.9496467e-05 1.9351291e-05 -0.00014681312 -0.00014685637 -0.00014687314 3.677518e-06
3.7186287e-06 3.6856839e-06 0.00011444111 0.00011483152 0.00011454343 0.00028702768 0.00072770764 0.00038046722
-0.0002552931 -0.00035451207 -0.00025486347 -0.00012146931 -0.00014834985 -0.00027912811 0.00039919693 0.00035720895
0.00045285455 -0.0006457669 -0.0005439107 -0.00073785 -0.00020857641 -0.00020338647 -0.00020359043 0.00045855064
0.00042249082 0.00041659136 0.00014260272 0.00014014564 0.00013201058 0.00026902766 0.00028586743 0.0002787346
-0.00017121993 -0.00026481517 -0.00021639919 -0.000351611 -0.00033180165 -0.00037260354 0.00035116792 0.0003642612
0.00034732828 -0.00017569448 -0.00016874068 -0.0001765232 0.00058496714 0.00050961494 0.00057338283 0.00014122957
0.00014226082 0.00015400379 0.00034700136 0.00029814013 0.00038695225 -0.0001343595 -0.00013469401 -0.00013467467
-7.822143e-05 -0.00010907671 -0.00010949519 -4.6900903e-05 -4.683335e-05 -4.6788336e-05 0.00077874295 3.6259364e-05
0.00060573424 -1.03220145e-05 7.619973e-05 1.7152034e-06 0.0005467257 0.00088938617 0.0028392507 -0.0012983513
-0.0008087902 -0.0012874333 0.062435083 -0.062157087 0.11600734 -0.24230853 -0.15044142 -0.10712251
-0.12459574 -0.048130468 -0.008682053 -0.014031538 -0.42920125 0.1440698 -0.008091306 -0.04001399
0.22870302 -0.059847645 -0.11492214 0.01980907 -0.08490391 -0.07762785 -0.15442836 0.012354122
-0.0047215014 -0.026962444 -0.011574133 -0.036647394 -0.00069289515 -0.02294782 -0.014864061 -0.034441154
0.089976884 0.2799434 -0.13355622 0.021671733 0.024313686 -0.032717004 0.058134895 0.044039566
0.06253307 0.01567149 0.04494319 0.015987711 -0.036773067 -0.042223692 -0.042774197 -0.6304155
0.97628754 -0.60300636 0.93469816 -0.86400676 0.18664815 -0.190534 -0.251314 0.5112058
-0.31421423 -0.12966527 0.5716844 3.039996e-05 3.6333073e-05 2.5895493e-05 1.6596479e-06 7.301644e-06
3.4046088e-06 -1.43913965e-08 -1.3864214e-08 -1.4445991e-08 -1.529644e-10 -1.523717e-09 -3.8390572e-11 -6.6449315e-06
-6.0302773e-06 -7.3097813e-06 -2.0181964e-05 -2.1649596e-05 -1.8879178e-05 4.499439e-06 4.6121195e-06 5.0939975e-06
1.7129903e-05 1.6755204e-05 1.680427e-05 -1.6629034e-06 -1.3360545e-06 -1.1321142e-06 -1.35411e-07 1.3149922e-08
-6.169624e-08 3.7857508e-06 4.5221514e-06 4.409455e-06 8.269958e-07 8.2201143e-07 8.220545e-07 -1.0566799e-05
-1.0026046e-05 -9.456742e-06 2.5715168e-05 2.5560568e-05 2.4627185e-05 -1.6247152e-06 -1.620419e-06 -1.638537e-06
-0.00013151109 -0.00018159061 -0.000171449 1.1071507e-05 1.9998333e-05 4.3807147e-05 1.0255624e-07 2.091163e-07
7.41741e-08 2.7532742e-05 0.00015572447 -0.0002768753 -0.52884567 -0.15457587 -0.060108606 0.25766435
0.28450426 0.21429348 0.18907532 0.049440544 -0.16571571 0.30360702 -0.027177414 -0.11615394
0.33315563 0.3336761 0.3575695 -0.07275293 0.06747162 0.025143873 -0.04709906 -0.04497074
-0.05445304 0.041440237 0.045436397 0.042409725 -0.19389339 -0.19684252 -0.16428268 0.12737413

bias f4 [128]
00000000: bf55 5eaa c952 7eae 66db 02b5 8576 d5a5
00000010: 20b3 4c34 e8d1 321d 5685 0935 b9c8 5c36
00000020: 5bb4 0319 aa7b 969f aa85 3fae 268c 6e36
00000030: 7f32 8523 b6b5 6f2a 2b18 9936 fdb1 bda2
00000040: 64fe 249d 9765 1f31 cc62 27b4 8fe9 43b4
00000050: 3c74 b1ac f913 1a30 3251 1fa6 47fd d79a
00000060: 8786 f0b6 90a9 16b5 cb12 a337 5b33 4fa9
00000070: 40e1 1735 6105 bfb4 b85a ce27 7e95 b7a2
00000080: a722 06b6 4f61 9e2f 205f 8fa3 9b2e 14ab
00000090: 0c23 f12d fca4 5730 8c91 2cb6 8cfb eeb0
000000a0: 30f9 772f 69c8 00b6 ecc8 0eb4 9f81 50b6
000000b0: 3bf3 01b4 c5ca 86ab 361d 2537 39d6 58b1
000000c0: 7876 39b5 0289 892b fb73 54b5 8c9c 8627
000000d0: 6ab7 b2b0 348c eda1 6ec6 4cb3 8506 b324
000000e0: 98a1 a2b5 6521 47ab fabc 28a2 dbf4 f72a
000000f0: aa7e ecb1 d511 41b6 9cdc 81b2 f32e bdb1
00000100: db69 802c ad1d 1998 11bc b79c e235 141e
00000110: 4efc b8aa a8e7 64af dcf5 cea2 d6f8 12b5
00000120: 7d10 0523 6564 7333 165e 2e35 d4e4 9334
00000130: 5e71 991c fda2 8524 a320 1bb0 f549 8ba3
00000140: 5f51 2fb1 a9ed 32b7 4d4a 7c1c c2f3 c0ab
00000150: fc9b 41b5 6fbb 202d 0b36 bd2b a9fe 942d
00000160: a340 1eb7 17e4 81b5 ff60 30b6 d236 f5a0
00000170: 6e99 53a2 9c27 94b5 9e32 83ad bc51 1b2f
00000180: d636 bd98 07bd b62a 8bd2 e927 08b7 ca2e
00000190: cb01 f8b0 f01d f92f b2e7 6f29 4dc3 ffa6
000001a0: 70ec 2620 70b1 a034 76fd af23 2d7c 9d1a
000001b0: 13d3 31b6 2122 3cb2 ec43 e0b4 4fcb 1224
000001c0: 5858 b4a6 7087 3522 1441 1218 4107 001e
000001d0: 68d5 1eb4 0013 a127 ff25 a0a5 97f5 0933
000001e0: 7b7f be1b 1148 11b4 5b1c a2a6 98e2 9535
000001f0: 5cf1 8123 7fac 6cb7 4344 91b6 72e1 dc23
-1.974731e-13 -5.782644e-11 -4.874804e-07 -3.7029922e-16 1.9064146e-07 2.3666623e-21 5.1230506e-07 3.289939e-06
6.808964e-24 -6.3732056e-20 -4.354709e-11 3.554634e-06 1.4441275e-17 2.1290508e-13 4.562569e-06 -5.1417005e-18
-2.1836736e-21 2.3195292e-09 -1.5589029e-07 -1.8245758e-07 -5.043547e-12 5.6053256e-10 -5.5274247e-16 -8.933111e-23
-7.1682184e-06 -5.61261e-07 1.9439865e-05 -4.6007777e-14 5.6579665e-07 -3.5580436e-07 5.7274843e-15 -4.976053e-18
-1.9987726e-06 2.8809174e-10 -1.5544378e-17 -5.264484e-13 2.7414092e-11 7.8451e-10 -2.5714717e-06 -1.7388273e-09
2.2553048e-10 -1.919014e-06 -1.3297876e-07 -3.1069865e-06 -1.2102548e-07 -9.577553e-13 9.841568e-06 -3.1553908e-09
-6.9090265e-07 9.772463e-13 -7.914493e-07 3.73622e-15 -1.3003334e-09 -1.6096856e-18 -4.7677922e-08 7.763992e-17
-1.211697e-06 -7.0745346e-13 -2.286829e-18 4.4045917e-13 -6.882904e-09 -2.876962e-06 -1.5117898e-08 -5.5059615e-09
3.649731e-12 -1.9789769e-24 -1.2158538e-21 7.8461975e-21 -3.2860037e-13 -2.081878e-10 -5.6096726e-18 -5.475134e-07
7.213436e-18 5.6669155e-08 6.4956964e-07 2.7547378e-07 1.0153995e-21 5.795567e-17 -5.643505e-10 -1.5101732e-17
-2.5512106e-09 -1.0664961e-05 8.3475837e-22 -1.3710077e-12 -7.212509e-07 9.136566e-12 1.3444258e-12 1.6938744e-11
-9.432583e-06 -9.677632e-07 -2.6282503e-06 -4.1540891e-19 -2.8677057e-18 -1.1038387e-06 -1.4915454e-11 1.4126206e-10
-4.8910725e-24 3.2460859e-13 6.4898762e-15 9.2184094e-11 -1.8044884e-09 4.5314108e-10 5.3269624e-14 -1.7747116e-15
1.4138978e-19 2.9931425e-07 1.9080883e-17 6.5134295e-23 -2.6497917e-06 -1.09508e-08 -4.177267e-07 3.1830913e-17
-1.2513955e-15 2.4601774e-18 1.8902914e-24 6.777764e-21 -1.4792533e-07 4.4707077e-15 -2.7781323e-16 3.212116e-08
3.1515246e-22 -1.3530395e-07 -1.1248694e-15 1.1167313e-06 1.4088428e-17 -1.41068585e-05 -4.3292835e-06 2.3947928e-17

weight f4 [128]
00000000: 297a 653b e629 803a 2a8c 2b3f bcfd 923c
00000010: f10c 013f f2a8 f638 e6b4 a43e 4c1a 423f
00000020: e79d 6f3b 9e14 33bc db9a 3d3d 86da 043f
00000030: 67f8 c139 b173 343c 7634 0c3f 0ceb 3c3c
00000040: 1530 0dbb eb4e 3f3b 836e b53e 1216 c13e
00000050: 2b49 db3c e763 f7bb d65f 4c3d 3473 5635
00000060: 5e81 443f 8d01 823e 01aa b03f f4f6 513b
00000070: d21a 103f 1fbc 8d3e f14b 22b8 1610 fa3b
00000080: 48af dc3e f2a7 3abd 95df 903c e835 a23c
00000090: bcf2 43bc ddc4 863d 07e3 533f cc18 823c
000000a0: b2a6 7d3c f9be fa3e 695b 463f d5e5 903f
000000b0: 72d6 9d3e 99a7 cf3c 12e7 213f 4359 943c
000000c0: 53b9 bc3e 0ff7 873c 0bd3 d53e 2988 3a3a
000000d0: e7a9 b13d a0c2 21b7 bef4 e83d 6f09 073c
000000e0: c21f fd3e 3fa2 00bd a947 6d3b b533 f43c
000000f0: a1ea d73d c61b 543f 921f c43d 474e a53d
00000100: 2416 9338 be1d 78b3 f9a9 35b9 098b 62ba
00000110: e8c4 d1ba 94a3 f9bc 2346 7936 c9bb 423e
00000120: e2c7 5f3a e384 783e 7571 8c3e 9234 793f
00000130: f1dd c13a 83bc c539 a425 7e3d b770 60ba
00000140: 7a3e 083a 5834 9e3f 4faa 4c39 7585 c03c
00000150: 791d 703f 5455 ec3c c8c3 4cbc 9715 613d
00000160: 61f7 9e3f a10e a13e b0f1 353f 410a b93a
00000170: 66dc b33c fd56 e53e eb2f ba3b 1fdc b33b
00000180: bf56 ab39 7728 173d e8bd 613b 3391 2cbc
00000190: 6db9 bd3d 445c a5bb 297c 58bb 7324 7b3c
000001a0: 1882 8b38 4e84 5a3e 8380 853c 6358 06bb
000001b0: 94c9 523f 8b5e 4ebd a6d5 683f 9989 353b
000001c0: 8030 dd37 c202 ad3b 30bc 7638 6b7a e339
000001d0: 48bd 233e f96d ed3a edd9 8a3b f260 ba3d
000001e0: 702d e437 9709 1d3e ebda 823a 7879 183f
000001f0: 3567 db39 97a1 9e3f 326c 993f 7bb0 853a
0.003501544 0.0009778112 0.6701075 0.017943256 0.5041037 0.000117616626 0.32169265 0.75821376
0.0036562623 -0.0109302085 0.04629026 0.5189594 0.00036996903 0.011013911 0.5476755 0.011530649
-0.0021543552 0.0029191326 0.35435876 0.3771215 0.026768288 -0.007549751 0.049896084 7.9888855e-07
0.767599 0.25391808 1.3801881 0.0032038065 0.56290925 0.27682588 -3.8694536e-05 0.007631312
0.4310248 -0.04557032 0.017684737 0.019801095 -0.011959728 0.065805174 0.8276829 0.015880965
0.015481638 0.48973826 0.7748323 1.1320139 0.3082767 0.025348471 0.6324321 0.01810897
0.3686014 0.016597299 0.41762576 0.00071156264 0.086749844 -9.6416625e-06 0.11374806 0.008241995
0.49438292 -0.03140473 0.0036206043 0.029809812 0.10542799 0.8285488 0.09576334 0.08071571
7.01363e-05 -5.776905e-08 -0.00017324825 -0.00086419337 -0.0016004117 -0.030473508 3.7144716e-06 0.19016947
0.000853656 0.24269442 0.2743031 0.9734584 0.0014790875 0.0003771522 0.062047616 -0.00085617177
0.0005197298 1.2359724 0.00019518401 0.023501137 0.9379497 0.028849281 -0.01249785 0.05495223
1.2419244 0.31456473 0.7107191 0.0014117436 0.02195568 0.4479293 0.005681982 0.005488887
0.00032680292 0.036903825 0.0034445468 -0.010532665 0.09263883 -0.0050463993 -0.003303299 0.015328514
6.652268e-05 0.21339533 0.01629663 -0.002049946 0.82338834 -0.050383132 0.90951 0.0027700423
2.6367838e-05 0.00527987 5.8826234e-05 0.00043388022 0.15990174 0.001811444 0.0042374046 0.09100522
2.7200877e-05 0.1533569 0.0009983456 0.59560347 0.0004184783 1.2393063 1.1986144 0.001019969

bias f4 [128]
00000000: 81ee 40bc 767e 1bbc aec1 05bf d902 30bd
00000010: 73d3 afbe 73b1 f6b8 8029 e2be c579 02bf
00000020: a9c0 78bb aee5 94bd b63e 41be 2ba2 b6be
00000030: 19a0 6ebc 21e7 36bd bb34 873e de94 8abc
00000040: 1784 5cbc 6834 eebd bd65 88be f48d dbbe
00000050: 2c13 f7bd 16ba 09bd 1929 efbd 9a28 9fb7
00000060: eb15 0dbf 1e03 c9be 046b 38be a30a 41bc
00000070: 11f2 9abe 699b 0ebf 9d1e edb7 2280 18bd
00000080: 5340 f9be 78b0 10be 8776 62bd 24f7 cdbd
00000090: 7976 4fbd 6252 2ebe ad9d cfbe 7423 24bd
000000a0: 4f2e 76bd 0229 acbe 5c75 1ebf f778 013e
000000b0: 9b50 aabe a924 8dbd 2754 8cbe 389f 9fbd
000000c0: 3443 90be bb72 9abe 6caf e1bd 58a9 49bb
000000d0: 192d a5be fcec 0fb7 ac2a 78be bb99 a3bc
000000e0: 3c8e 96be 792e 21be a40f 90bc d161 11be
000000f0: aed6 93be afed 9d3e 3934 81be 67a0 54be
00000100: 7f6d 8cbd bf5d ccb4 6618 ecba f6aa b2bc
00000110: 00c8 3abc 27a6 35be 7335 efb7 37e1 96be
00000120: d61c 97b9 52ed 96be 45a9 aabe d111 97be
00000130: 3109 05bc 271c b4b9 7d18 44be ab9b 6bbd
00000140: 25fc 23bc d82d 6dbd 04a7 fcba 4d0c b7bd
00000150: acd5 94be dc7c 10be e058 66bd 46e7 57be
00000160: e0de d6be 2bc9 02bf 4c1f c5be c6f5 d7ba
00000170: cfa1 b2bd 3ab0 05bf 22f3 b8bc d03e 66bc
00000180: 9ae4 a5ba 1d6d 1dbe c467 12bb 38a1 06be
00000190: 0846 61be 7e65 9dbd 8151 adbb 738b 4cbc
000001a0: abfb ffb8 8d08 a5be 62a1 45bd 661d 97bb
000001b0: f925 2bbe ae06 4cbc 564a de3e 8441 c2bb
000001c0: 21a6 b0b7 a60b ffbb 5099 92b7 ed4e abba
000001d0: d31a a9be 5d09 f2bb 47cb 03bd 0bc1 a0be
000001e0: dbff 4ab9 e1e4 a6be c3ce 2dbc def8 043d
000001f0: 2557 6cba dac7 c0be 2318 dabe b78b 76ba
-0.011775614 -0.0094906 -0.52248657 -0.042971466 -0.3434101 -0.000117632466 -0.44172287 -0.50967056
-0.0037956631 -0.072703704 -0.18871579 -0.356706 -0.014564537 -0.044654015 0.26407418 -0.016916689
-0.013459227 -0.116310894 -0.2664012 -0.4288174 -0.120642036 -0.03362473 -0.11677761 -1.8973184e-05
-0.5511157 -0.3926019 -0.18009573 -0.011782321 -0.30262807 -0.5570589 -2.8266857e-05 -0.037231572
-0.48681888 -0.14129817 -0.055288818 -0.10056904 -0.050650094 -0.17023614 -0.40549985 -0.040072873
-0.060102757 -0.33625036 -0.61897826 0.126438 -0.33264622 -0.06891758 -0.27407953 -0.077940404
-0.28176272 -0.30165657 -0.11019787 -0.0030771103 -0.3226097 -8.578641e-06 -0.24235028 -0.019970765
-0.2940539 -0.15740384 -0.017585583 -0.1419747 -0.28874725 0.308454 -0.25235155 -0.20764314
-0.06856822 -3.806617e-07 -0.0018012642 -0.021810036 -0.011400223 -0.17739163 -2.851591e-05 -0.294687
-0.0002882245 -0.29477936 -0.33332267 -0.2950578 -0.008119867 -0.0003435325 -0.19149967 -0.057521503
-0.010008846 -0.057905048 -0.0019275849 -0.08937893 -0.2906927 -0.1411013 -0.0562371 -0.21084318
-0.41966915 -0.5108821 -0.3850044 -0.0016476444 -0.08722269 -0.52222025 -0.022576872 -0.014053062
-0.001265663 -0.15373655 -0.002233968 -0.13147438 -0.21999371 -0.07685374 -0.005289257 -0.012484419
-0.00012206224 -0.32233086 -0.04824961 -0.004611659 -0.16713704 -0.012452764 0.4341609 -0.00592822
-2.1058195e-05 -0.007783371 -1.7475948e-05 -0.0013069786 -0.33028278 -0.00738637 -0.032176282 -0.3139728
-0.00019359535 -0.32596496 -0.010608378 0.0324639 -0.0009015671 -0.37652475 -0.4259654 -0.00094049744

running_mean f4 [128]
00000000: f7cf 16b7 4100 40b7 eaf7 063b c77f 9d36
00000010: 245c 233c b85b 96b6 7601 ba3c 5df0 9f3b
00000020: f60a 2ab6 44cd 8cb9 21ca d83a 2081 10bb
00000030: 2e82 3db8 1179 96b8 20cc f63c 794c a8b8
00000040: ca9e 43b7 5608 4a39 14c3 7ebc 3c9f 923a
00000050: 622e 2339 b4ad 8db6 f29c 28ba 51c4 c4b3
00000060: 674c 103c 3bc9 95ba a9a2 213b c097 3ab9
00000070: 3d66 033d 74b4 0abc 71a7 2538 a2d0 25b8
00000080: 4b06 bcba 81c6 dfba 73da a5b9 4337 e3b8
00000090: 9947 3db7 ed6f 5cba 73c8 28bb f74e 9237
000000a0: c479 423a 70ea a53c 7f5a e33c 5922 67bc
000000b0: fc04 b93b 3f62 4539 5eed d2bb cb70 32b9
000000c0: a75e 42bc e700 b6ba 32ab 713c ebf3 2eb7
000000d0: 0f9d d93b 5755 2fb5 bbc7 913b 5b49 06b8
000000e0: b8d1 ea3a 72b2 88ba f090 01b8 e1aa 2539
000000f0: 27da a53b c0c2 373c 0ee8 92ba afba 31b8
00000100: 072e 25ba 841a 5c34 4cf1 b9b3 0f80 96b8
00000110: c1ba b7b7 fd28 f0ba 9ce4 b7b5 c5c5 17bb
00000120: b264 8fb4 44c9 883b 22ea dab9 324c 983c
00000130: 800c 3cb8 7685 43b7 b62f 6cb9 a0bd e4b8
00000140: f092 9ab9 f983 983b 1d99 0336 6ff7 66ba
00000150: c3df b43b a69b 5139 0cba b13a 0f37 033b
00000160: 4ead aa3c 75bb a93b 3246 09bb 83e8 0bb7
00000170: 0759 4bb9 1c5a ab39 16ad 8ab7 6ac0 0e39
00000180: f014 65b6 09b3 c7b9 b164 95b7 54f3 b6ba
00000190: 8823 71b7 9548 3e38 f58f 5fb7 a60f 26b6
000001a0: 300d b1b4 aaee 013b a87d a5b8 e762 6f36
000001b0: 39d2 c6b9 1b08 803a fadc 1d3d aec9 99b5
000001c0: 5d39 86b8 bc98 10b7 5ba8 8cb5 9fd7 56b6
000001d0: fe41 143b 1ccd d9b7 f5f7 2738 f1e6 9cbb
000001e0: a438 7db7 8ab3 cf3a e6ce 29b7 e182 7bbc
000001f0: 442e 0ab6 038d 933c aa3c 42b9 91ac d235
-8.989117e-06 -1.1444151e-05 0.0020594546 4.69384e-06 0.0099706985 -4.481026e-06 0.022705775 0.0048809485
-2.5338354e-06 -0.00026855816 0.0016539731 -0.002204962 -4.518235e-05 -7.175108e-05 0.030126631 -8.0251084e-05
-1.1659877e-05 0.00019267327 -0.01554944 0.0011186372 0.0001556217 -4.222349e-06 -0.0006432078 -9.162671e-08
0.008807278 -0.0011427769 0.0024663603 -0.00017794874 0.032079924 -0.008465875 3.9495008e-05 -3.953337e-05
-0.0014345137 -0.0017072709 -0.0003163401 -0.00010834497 -1.1281948e-05 -0.0008409012 -0.0025754243 1.7441327e-05
0.0007418657 0.02025339 0.027753113 -0.01410731 0.005646346 0.00018823984 -0.006436988 -0.00017017421
-0.011863387 -0.0013885767 0.014750289 -1.0428e-05 0.0066410373 -6.5316766e-07 0.0044488586 -3.2016407e-05
0.0017915284 -0.0010429157 -3.089098e-05 0.00015799284 0.005061406 0.011215866 -0.0011208074 -4.237395e-05
-0.0006301109 2.0498743e-07 -8.6586255e-08 -7.17641e-05 -2.1902264e-05 -0.0018322762 -1.3701097e-06 -0.0023158651
-2.670909e-07 0.0041743834 -0.00041754643 0.01859102 -4.4834334e-05 -1.16539795e-05 -0.00022524488 -0.000109072076
-0.00029482646 0.0046544042 1.9609645e-06 -0.0008810674 0.0055198385 0.00019989777 0.0013559475 0.002002183
0.020834591 0.0051798173 -0.002094638 -8.3391815e-06 -0.00019392754 0.00032682798 -1.6531481e-05 0.00013613855
-3.4135846e-06 -0.0003808963 -1.7809072e-05 -0.0013958015 -1.4372992e-05 4.5367127e-05 -1.3325353e-05 -2.4745036e-06
-3.2978414e-07 0.0019826093 -7.8912184e-05 3.5671344e-06 -0.0003792213 0.0009768041 0.038540818 -1.1458085e-06
-6.400303e-05 -8.61863e-06 -1.0479811e-06 -3.2013993e-06 0.0022622342 -2.5963927e-05 4.004683e-05 -0.0047882725
-1.5093163e-05 0.0015846353 -1.0121357e-05 -0.015351028 -2.0590533e-06 0.018011576 -0.00018523881 1.5696443e-06

running_var f4 [128]
00000000: 79d0 3337 800d 4a38 43f9 2e40 31c3 e234
00000010: c4c2 3b40 35ec e434 784a 3140 503d 1e40
00000020: ee07 2034 9851 a23a dd84 643d e27c 0241
00000030: 33c7 b738 2761 b93a 9345 4741 37ee 8939
00000040: 99b6 2a36 8969 593d a04a c740 7fe9 0040
00000050: 835b ec3c f3be ac3a a8ad bf3c 44de 3630
00000060: 53a5 6041 7475 353f 76e5 cf41 6721 8c3a
00000070: dffa 1541 71b9 8540 ed1e 1538 c531 8d39
00000080: 9f0f 8940 8253 043d f9ed 4b3b 3ba0 8339
00000090: 74a9 3439 0bbd 023e 686b c240 2195 733a
000000a0: 910f a73b dbdd f440 bc08 0241 eef9 5f41
000000b0: 2a11 1840 7c53 ae3a 7dea f040 a3a2 4b3b
000000c0: 4f5e 2f40 f355 113e ebe4 d040 a71f 4036
000000d0: 39c3 813f 240e 8232 7183 c73e 2526 7c37
000000e0: c009 da40 039e 293d e3fe a237 2fef bd3c
000000f0: 219d 2c3e 7ebf 5e41 fd5b 5f3d 3a4a 063e
00000100: b7f3 7c3c 81b2 a030 e91c b230 60d5 ef38
00000110: 67d2 a937 dc96 313e 2ec7 1a34 83f0 7f3f
00000120: 65bd 1331 0959 a73f 0252 1b40 4068 3141
00000130: 32bd 1838 5b5f 3336 a05f c63c 4983 3239
00000140: 5116 d139 af2c 8f41 6c31 6b34 8637 9b3c
00000150: 229a 7b41 2171 0d3c e896 2f3d 8b28 793d
00000160: 3dca 9641 ba2e 8740 46ba 3141 7917 b435
00000170: 50b7 1b3a 36fc 3740 7456 0639 d7c2 5539
00000180: e82e 0935 1d0e a03c cf0a 1b37 15f3 d63d
00000190: 7b42 d43e c63d 453d 5553 9836 ea7f 4236
000001a0: 942d 2931 1a08 a43f 9ed8 003b a305 8a34
000001b0: 5050 a740 35f6 1d3f 2333 bf41 f91c a034
000001c0: 5f4d 0c39 a723 cf35 4483 de32 6866 8c35
000001d0: 3ced 0140 06fc 9d37 9be9 a038 91ca ca3f
000001e0: 39b3 8336 4380 313f cdf8 7e36 caca ec40
000001f0: 5969 cd33 92d7 9541 2960 8e41 e9e0 7e33
1.071777e-05 4.8173126e-05 2.7339637 4.22378e-07 2.9337626 4.2640173e-07 2.7701702 2.4724922
1.4904046e-07 0.0012383936 0.05579077 8.155489 8.763224e-05 0.0014143334 12.454486 0.0002630816
2.543826e-06 0.05307916 6.2278595 2.0142515 0.02885223 0.0013179466 0.023398235 6.652707e-10
14.040362 0.70882344 25.987041 0.0010691107 9.373748 4.178887 3.555317e-05 0.00026930697
4.283157 0.0323062 0.0031117185 0.00025105648 0.00017229264 0.12767427 6.075611 0.00092919363
0.005098291 7.652082 8.127132 13.998518 2.3760476 0.0013300027 7.528624 0.003107228
2.7401311 0.14192943 6.527944 2.8628654e-06 1.0137702 1.5140422e-08 0.3896747 1.5029252e-05
6.81369 0.041410457 1.9430596e-05 0.02318534 0.16856815 13.921751 0.054531086 0.13114253
0.0154389655 1.1692266e-09 1.2959421e-09 0.00011436152 2.0244346e-05 0.17342705 1.4414829e-07 0.99976367
2.1498974e-09 1.3074046 2.4268804 11.087952 3.6415826e-05 2.6728583e-06 0.02421552 0.0001702431
0.00039880213 17.896818 2.190406e-07 0.018947374 15.72513 0.008632929 0.042868525 0.06082968
18.84875 4.224454 11.107977 1.3417877e-06 0.00059400965 2.8747687 0.00012811442 0.00020385846
5.1104735e-07 0.01953798 9.2412365e-06 0.10495583 0.4145697 0.048154615 4.539654e-06 2.8982708e-06
2.4618645e-09 1.2814972 0.0019660364 2.5708604e-07 5.228554 0.6170381 23.89997 2.9823403e-07
0.00013380263 1.5433078e-06 2.5903894e-08 1.0460617e-06 2.0301046 1.8833216e-05 7.672907e-05 1.5843068
3.9249685e-06 0.69336337 3.799377e-06 7.3997545 9.565219e-08 18.730259 17.796953 5.9343538e-08

weight f4 [128, 128, 3]
00000000: f5d4 fe2d 165c 662c 428b cbac 758a 93b2
00000010: 6815 7eb2 211c 37b2 3c34 fab2 b831 0032
00000020: 9466 31b2 6422 0227 f8e1 1227 5cee c426
00000030: 6193 05b2 1a1d 0232 f113 ac30 65ea 79a6
00000040: 337c 49a6 0aab 0ba6 2895 afb1 5cf2 76b1
00000050: 302d 16b1 112b 4f32 11a6 5033 beec 12b3
00000060: aac3 5baa a71b ccaa b601 2caa 665f c827
00000070: 6aaa f426 4f61 d126 5818 5832 bbee be31
00000080: 77bc 0732 a257 c133 63db 8633 d9ca a033
00000090: 625b 992c e306 3aac 4771 402c 4ee5 3e2c
000000a0: 18ef 982b 282b 4f2c 6ada cfb7 6872 eeb7
000000b0: 70fb 98b7 ff3d 75ab a9db 50ab ae30 adab
000000c0: 77b6 f730 f426 9a31 c7bd 2531 1ebb 1932
000000d0: 28b1 d531 a33d d531 1b41 71b3 2262 73b3
000000e0: 2209 62b3 b175 4831 3cd0 5731 5372 8631
000000f0: 0b14 3330 eed4 a030 219f 0731 2ceb 1eab
00000100: 55ab ea2c 050d 412d 8536 39ae fd57 6caf
00000110: 9c71 0130 6387 48a3 2cb9 29a3 7590 01a3
00000120: e0fe 17b4 c07c 85b4 55df b2b4 f5b6 bb2f
00000130: 960a af2d 7c13 2faf 6c72 fbb3 8010 d8b3
00000140: 3145 b7b3 9548 0aae 356b aaae a4d9 3baf
00000150: efe9 00b2 db08 8d31 09d0 eab0 33bd 5831
00000160: c239 b631 876f 1231 1573 0aa0 44ef 6a1e
00000170: d838 3d20 6bfe 7dab 109d 6eab 97e2 e7aa
00000180: cf00 8232 0c54 f432 78b0 7332 7891 d132
00000190: 7eee bb32 fd08 a032 51cf c72c 331b d32c
000001a0: d9ed 602b 0d05 69a6 3b1f 0a27 564f 24a8
000001b0: dc65 a32c a3d1 632c 1f01 6e2c 11d1 fa32
000001c0: b7be 0a33 985c 1a33 9fe9 79b9 7bee c9b9
000001d0: 2528 adb9 3673 41b3 f253 69b3 2442 acb3
000001e0: 4094 bf2d 23dd 5fad 7859 d02c 86fd 94b4
000001f0: a3fe 10b5 4738 ddb4 7ec7 26b3 2414 02b3
00000200: 1f97 d3b2 16b8 39b7 24c0 a5b6 0915 38b6
00000210: ef6c 33b2 f7f0 bfb1 53fc 8ab1 51cb d3ab
00000220: 7fee 63ad 6e07 892b a287 0b32 f24d 0d32
00000230: d46d 2732 94da 1ba8 aa12 3a29 9bce 23aa
00000240: e2f6 4932 3ed5 4432 d82b 2232 d80f ac2e
00000250: 85af 85b0 22dd 4cb1 7a8b adb5 18c9 78b5
00000260: a6ad 41b4 377d 94a8 9623 eba7 2b71 f0a7
00000270: ea38 9730 e634 8330 3869 8130 ccc9 38aa
00000280: 05a2 bca8 95de 0fa9 a892 c3af f0b1 9caf
00000290: d671 4030 95cb dbac 258b afac 3b8e e52c
000002a0: 6ebd 0eb3 9428 0eb3 7840 f1b2 14d0 a1b2
000002b0: e555 91b2 156a 1eb2 4ecd 27b1 6562 03b1
000002c0: 6805 3cb1 916d 19af 00a0 abaf 39f9 9230
000002d0: c5b1 ceb1 1797 d3b2 df20 3832 6de3 b934
000002e0: e53c c234 692b 3a34 5d02 59b1 7793 6cb1
000002f0: 0787 11b1 09b4 e7b0 8655 cbb0 eb9e acb0
00000300: 18d6 91b0 03ff 99b0 39fd 87b0 8d6e 719d
00000310: de61 7ba0 6a12 179f b701 0f2d 903f 222d
00000320: 3213 162e cecb 31a6 a20f 2ba6 1d64 22a6
00000330: 3d67 39ad 8274 962e 0105 6d2e 09c4 cf31
00000340: fbb3 c031 6e21 f531 9b44 93ab 0d84 2fab
00000350: ed64 6bab bd4b b832 30ba bf32 e603 f831
00000360: 0d06 5e2a 6417 832b 69db 302b f918 b2b1
00000370: ca4a d5b1 1e7c cfb1 9d78 eeb4 574e 7db5
00000380: 1bf2 c3b5 0c57 13b3 7f18 08b3 3e27 d4b1
00000390: d21c 84a3 4bef 2b25 1794 4ca1 8558 17ac
000003a0: 179f 17ac 4993 8baa ea49 5caf 010e 1caf
000003b0: 409e 0a2d 5070 3bac a636 97ac d594 402b
000003c0: e217 7ab0 5543 16b1 b88e 62af 65b0 48b6
000003d0: 0ae4 c0b6 9e76 a4b6 057b 62a5 994e aea5
000003e0: 2830 63a4 a676 d133 3a20 fd33 b8cb 8c33
000003f0: 1494 2034 a0f7 f233 b126 5434 979c 71b2
2.8971029e-11 3.2736084e-12 -5.7850677e-12 -1.7176015e-08 -1.4789613e-08 -1.0658398e-08 -2.9127584e-08 7.461885e-09
-1.03260795e-08 1.8059767e-15 2.0384068e-15 1.366484e-15 -7.775129e-09 7.573613e-09 1.2520315e-09 -8.6706893e-16
-6.9904205e-16 -4.8457114e-16 -5.1101274e-09 -3.5935477e-09 -2.185356e-09 1.2058778e-08 4.857981e-08 -3.420859e-08
-1.9518992e-13 -3.6256867e-13 -1.5277262e-13 5.5614582e-15 1.6977092e-15 1.4528664e-15 1.257839e-08 5.5568683e-09
7.900886e-09 9.003203e-08 6.2797675e-08 7.4874784e-08 4.358667e-12 -2.6436013e-12 2.7347723e-12 2.7127914e-12
1.0866611e-12 2.9440426e-12 -2.477803e-05 -2.8425085e-05 -1.8236897e-05 -8.712752e-13 -7.4201284e-13 -1.2305901e-12
1.8023475e-09 4.4864183e-09 2.4118536e-09 8.948318e-09 6.219256e-09 6.206123e-09 -5.6171398e-08 -5.6667098e-08
-5.262803e-08 2.917073e-09 3.1404985e-09 3.9129104e-09 6.5148303e-10 1.170205e-09 1.973554e-09 -5.645924e-13
6.6697017e-12 1.0973671e-11 -4.2112553e-11 -2.1495335e-10 4.7091375e-10 -1.0870691e-17 -9.20072e-18 -7.023694e-18
-1.4155694e-07 -2.4863948e-07 -3.331758e-07 3.41451e-10 1.9899898e-11 -1.592308e-10 -1.17089115e-07 -1.0061285e-07
-8.5341874e-08 -3.1442033e-11 -7.749749e-11 -1.7084872e-10 -7.503771e-09 4.104647e-09 -1.7084868e-09 3.1539684e-09
5.3034634e-09 2.1309192e-09 -1.1727132e-19 1.2437336e-20 1.6027731e-19 -9.023673e-13 -8.4772554e-13 -4.119107e-13
1.513436e-08 2.8443559e-08 1.4184586e-08 2.4396954e-08 2.1878119e-08 1.8630539e-08 5.678937e-12 6.0000004e-12
7.9910866e-13 -8.084496e-16 1.9168277e-15 -9.121032e-15 4.6440473e-12 3.2375012e-12 3.3822457e-12 2.9198903e-08
3.2304083e-08 3.5940133e-08 -0.00023833521 -0.0003851539 -0.0003302704 -4.5041098e-08 -5.4325888e-08 -8.021405e-08
2.1780022e-11 -1.2725185e-11 5.9216486e-12 -2.775161e-07 -5.4014725e-07 -4.1205405e-07 -3.8831324e-08 -3.02863e-08
-2.4632355e-08 -1.106972e-05 -4.9397513e-06 -2.743038e-06 -1.044394e-08 -5.586226e-09 -4.0450145e-09 -1.5048883e-12
-1.2956413e-11 9.736498e-13 8.121704e-09 8.225003e-09 9.745651e-09 -8.651625e-15 4.1316485e-14 -1.4548989e-13
1.17558745e-08 1.1457187e-08 9.43961e-09 7.824469e-11 -9.726909e-10 -2.9811607e-09 -1.2930097e-06 -9.267983e-07
-1.8037699e-07 -1.6485604e-14 -6.5264185e-15 -6.673608e-15 1.1002872e-09 9.546539e-10 9.41589e-10 -1.6412495e-13
-2.0942458e-14 -3.1945438e-14 -3.55745e-10 -2.8502667e-10 7.0010964e-10 -6.2469565e-12 -4.9892473e-12 6.524362e-12
-3.3234237e-08 -3.3098857e-08 -2.808541e-08 -1.883749e-08 -1.6919282e-08 -9.220931e-09 -2.44184e-09 -1.911894e-09
-2.7360674e-09 -1.3954195e-10 -3.1218406e-10 1.0693731e-09 -6.015599e-09 -2.463234e-08 1.0717684e-08 3.462441e-07
3.6179622e-07 1.7338392e-07 -3.1579e-09 -3.4426344e-09 -2.1177031e-09 -1.6858631e-09 -1.4794501e-09 -1.2559814e-09
-1.0610988e-09 -1.1204694e-09 -9.894513e-10 -3.1953238e-21 -2.1292909e-19 -3.1990726e-20 8.12899e-12 9.2227476e-12
3.41231e-11 -6.168542e-16 -5.934873e-16 -5.634072e-16 -1.0538956e-11 6.841906e-11 5.3892005e-11 6.0467795e-09
5.608397e-09 7.134239e-09 -1.046402e-12 -6.2355747e-13 -8.3628834e-13 2.1454861e-08 2.2319995e-08 7.218193e-09
1.971966e-13 9.314602e-13 6.2832254e-13 -5.183321e-09 -6.2076184e-09 -6.0386034e-09 -4.4418712e-07 -9.4363844e-07
-1.4599094e-06 -3.4305273e-08 -3.1687247e-08 -6.1744734e-09 -1.4323675e-17 1.4912961e-16 -6.9313884e-19 -2.1507529e-12
-2.1546703e-12 -2.479356e-13 -2.0035143e-10 -1.4193093e-10 7.87953e-12 -2.6636644e-12 -4.2977453e-12 6.841865e-13
-9.098341e-10 -2.1866147e-09 -2.0605284e-10 -2.9904998e-06 -5.748593e-06 -4.9013897e-06 -1.9644056e-16 -3.0237448e-16
-4.926357e-17 9.753903e-08 1.17870925e-07 6.556314e-08 1.4955032e-07 1.1314046e-07 1.9758114e-07 -1.4063651e-08

bias f4 [128]
00000000: 122b 4529 2c90 92b6 f010 7836 7443 0e31
00000010: fd5c 0131 eef3 2536 2c79 2bae a079 8820
00000020: 60bc 3d30 f104 c0b4 a3a1 051f 150c d4b5
00000030: 20ec fea4 d003 45b5 355f 3632 d1f3 4b37
00000040: ecd8 a0b0 4036 90b6 a739 a11e cd19 8fb6
00000050: 1e00 4cb4 ad49 0f32 a9e7 eca7 7f35 9ca7
00000060: 4d8f 5d97 d179 a4b6 d0b7 d8ac bde7 5436
00000070: eae3 2ab0 e836 c635 58e5 8734 785b 89b2
00000080: 7ff1 3fad 2302 8e33 0afc 2e35 5171 a2b4
00000090: 32e7 8fb5 0d44 a028 c727 0c33 86e8 7c36
000000a0: e2f5 0e2e 60b1 7434 6505 beb5 5217 00b4
000000b0: e6bf 9033 766c 6ab4 d73a 9436 29a1 c0ae
000000c0: ce63 07ab d676 222a 2a5b 5537 7a0e cca4
000000d0: 758a e532 484a 1322 289e 052b 4bc2 bcb5
000000e0: 4baf 1730 3009 be1a 6cb7 4636 d03c 4db2
000000f0: dee0 79b2 fb93 e5a4 31d1 d925 48e1 1730
00000100: c80c e2b6 fcae 0236 12c3 7fb5 bce3 b634
00000110: 2888 dea7 e0e3 4c37 09f3 27b7 28eb 7d35
00000120: 4bdf 06b4 5387 9f9d f243 46b4 57a9 39a1
00000130: 8829 171f f691 f920 2e09 a722 b4ad 87a8
00000140: 6ceb 18b3 8067 b0b5 caca 93af 259d 7235
00000150: a428 bf36 f7b6 0e35 0bdd 50b5 d4ef f725
00000160: 7202 5a2f 0f84 0c33 9445 08a5 c055 9bb7
00000170: 70ba 02b5 8208 2a36 2f9f 1034 ef2b 9736
00000180: a1e0 99b5 19d6 e5ab ddfa 8933 bc4a a31e
00000190: 06b6 87b6 81ab a9b5 f2c8 3ab5 d9c0 8a1e
000001a0: dc69 b9b1 80a6 14b6 86e6 dc25 d2d1 98b5
000001b0: 2b93 0c37 89d2 09af 566c 9133 f467 7432
000001c0: 77f6 c9b6 3d4f 0c36 4a25 3635 3b22 3d32
000001d0: 1c8c 1ab6 2e9b 7737 6a73 a3b7 11e5 c5b5
000001e0: d535 a336 09da ab27 6a04 2137 1ef5 2bb5
000001f0: 7635 6725 592d 24b6 59a0 81b4 339c 3fb1
4.3780145e-14 -4.367923e-06 3.6964739e-06 2.0702062e-09 1.8824828e-09 2.4728902e-06 -3.898852e-11 2.311978e-19
6.9025496e-10 -3.5766382e-07 2.8297548e-20 -1.5798747e-06 -1.1055495e-16 -7.3393767e-07 1.0615442e-08 1.2156511e-05
-1.1703185e-09 -4.29785e-06 1.7070383e-20 -4.2647357e-06 -1.8999023e-07 8.340447e-09 -6.5754325e-15 -4.33567e-15
-7.158982e-25 -4.901762e-06 -6.1594965e-12 3.1725351e-06 -6.2169525e-10 1.4768129e-06 2.531258e-07 -1.5990494e-08
-1.0910716e-11 6.612779e-08 6.5186816e-07 -3.02573e-07 -1.0721617e-06 1.779308e-14 3.2632467e-08 3.7686273e-06
3.250545e-11 2.27888e-07 -1.4157673e-06 -1.1929413e-07 6.740429e-08 -2.1832406e-07 4.4175936e-06 -8.759777e-11
-4.810014e-13 1.442972e-13 1.2717015e-05 -8.849542e-17 2.6722072e-08 1.996154e-18 4.747058e-13 -1.4063638e-06
5.5182586e-10 7.8597e-23 2.9611065e-06 -1.1946398e-08 -1.45448364e-08 -9.956361e-17 3.7785253e-16 5.5253624e-10
-6.736813e-06 1.9473364e-06 -9.527877e-07 3.406584e-07 -6.1765e-15 1.2212404e-05 -1.0010562e-05 9.459204e-07
-1.2560956e-07 -4.222687e-21 -1.8464905e-07 -6.290456e-19 3.2009848e-20 4.227883e-19 4.527516e-18 -1.5063343e-14
-3.5604373e-08 -1.3143144e-06 -2.6883235e-10 9.03807e-07 5.6969748e-06 5.316537e-07 -7.78077e-07 4.3010184e-16
1.9827853e-10 3.2716397e-08 -1.1819694e-16 -1.851737e-05 -4.8700076e-07 2.5336926e-06 1.3468956e-07 4.505265e-06
-1.1464764e-06 -1.6330853e-12 6.4251914e-08 1.7289206e-20 -4.044504e-06 -1.2641395e-06 -6.9582813e-07 1.4691078e-20
-5.3962435e-09 -2.2150634e-06 3.8320125e-16 -1.1385948e-06 8.3789155e-06 -1.2534875e-10 6.771795e-08 1.42263055e-08
-6.018959e-06 2.0907748e-06 6.7854546e-07 1.1009031e-08 -2.3029343e-06 1.4758478e-05 -1.9484858e-05 -1.4744311e-06
4.8640454e-06 4.769843e-15 9.5973755e-06 -6.4059157e-07 2.005417e-16 -2.44643e-06 -2.414479e-07 -2.7882947e-09

weight f4 [128]
00000000: 5d78 c2b9 fe38 103f 1cac 493f a94a 563c
00000010: fee2 103d 5944 413f 2469 063c 6c3d d9b7
00000020: 61b9 ba3c b6b1 f13e 3e00 a93a 4087 053f
00000030: c93d 77b9 e806 d43e e553 9c3c 58c7 2740
00000040: a20c 8b3d a22f 733f 4416 71b6 549a 373f
00000050: d95d 823d 4e5b 173d f2e6 ef39 9c88 9139
00000060: 46df d931 c840 1f3f 622e 113c a4eb bb3f
00000070: 1c1a 213c 6c17 c63e 2e1f a33e 2eb1 d63d
00000080: 50b8 b33a 4d7e 6f3c 0a98 ce3e 7361 223f
00000090: 6d53 2d3f a8da bc3c c76c 253d 045d 183f
000000a0: 98eb 7d3c 9b09 5c3e f899 b83f 0c8f 803d
000000b0: 0a4c c03c 2b5b e03d 651c e03e 9e84 54bb
000000c0: 1f32 b03b dbe4 2b3b 450c a13f f079 20b6
000000d0: d2e6 5f3d 81e4 583a 50f5 03ba 02a8 b83f
000000e0: c73f 063a 1045 7fb7 d2d5 bb3e 9164 be3b
000000f0: 0938 f23d e301 7fb8 f118 be38 ead9 823b
00000100: e7ff 8f3f adb8 113f 136b 823f c293 713d
00000110: 11d4 daba 4a68 d53e c72f 8d3f 379f f13e
00000120: 18c7 023e 629a ffb8 2c16 063f 2a67 043b
00000130: bea2 5e31 bb60 13b8 28d5 2c3a de92 b3b9
00000140: 86df 3a3d 8493 0e3f 963e 2ab9 6724 b13e
00000150: 7d30 303f cd5b 8e3e 03dc b63e ca90 0939
00000160: 068d d5ba c3fb 3c3e 1c36 ee3a da65 af3f
00000170: 9c10 1a3e 9852 f13e d7cf 0c3e 4ed7 4a3f
00000180: 83a2 693e beea 85b9 9996 2b3d 6175 95b9
00000190: e321 743f 2e6e 543e 5131 b63e f971 113a
000001a0: 884c 9d3c 103d 833f 774d ffbb a6de ed3e
000001b0: b23e ec3e b86c d13b 0b00 2d3f c4a8 8a3c
000001c0: f7b9 7d3f 6cc3 5e3f ab79 293f f946 ce3d
000001d0: a92f ff3e 9bbd 793f 355d 9d3f cb4c 4d3f
000001e0: 5370 3e3f e033 9e3b 77ee 863f 244e 243f
000001f0: 0065 a93a acd2 f23e f709 043e d018 093d
-0.0003709224 0.56336963 0.78778243 0.013079324 0.035372727 0.75494915 0.008203778 -2.5897018e-05
0.022793474 0.47205895 0.0012893749 0.521595 -0.00023578772 0.4141152 0.019082973 2.621542
0.06789519 0.94994557 -3.5924759e-06 0.7171986 0.06365556 0.03695231 0.000457577 0.00027758337
6.3409145e-09 0.62208223 0.008861156 1.4681287 0.009832885 0.38689744 0.31859726 0.10483013
0.0013711546 0.014617515 0.40350372 0.63429946 0.6770542 0.023053482 0.04038694 0.5951693
0.015498064 0.21488039 1.4421988 0.06277284 0.023473758 0.10954889 0.43771663 -0.0032427679
0.0053770686 0.0026228938 1.2581869 -2.3912835e-06 0.054663487 0.0008273796 -0.0005033808 1.4426272
0.0005121198 -1.5215264e-05 0.3668657 0.0058103283 0.11827094 -6.0798495e-05 9.064552e-05 0.0039932625
1.124997 0.5692242 1.0188926 0.058978803 -0.0016695281 0.4168113 1.1030205 0.47191784
0.1277126 -0.000121881036 0.5237758 0.0020203092 3.239776e-09 -3.513762e-05 0.0006593042 -0.00034250965
0.045623325 0.5569384 -0.00016235778 0.34598085 0.6882399 0.27804413 0.3571473 0.00013119276
-0.0016292639 0.18455414 0.0018174085 1.3702958 0.15045398 0.47133327 0.1375116 0.7923478
0.228159 -0.00025542633 0.041891668 -0.0002850695 0.9536421 0.20745155 0.355845 0.0005548294
0.019201532 1.025301 -0.007791217 0.4645893 0.46141583 0.006391134 0.6757819 0.016926177
0.99111885 0.8701694 0.66201276 0.10072131 0.4984105 0.9755494 1.229407 0.801953
0.74390143 0.0048279613 1.0541524 0.64181733 0.0012923777 0.47426355 0.12894426 0.03347093

bias f4 [128]
00000000: 363e 89bc df3a a1bc 118d 243e 881d d3bc
00000010: dedc c0bd d722 c1bc 1186 0fbd 56b9 08bc
00000020: b534 b5bc 3c64 9a3b c002 50bc 4d74 0abe
00000030: 94e5 66ba ea1b 93be 490d 5ebd bc57 cd3d
00000040: ff3a 94bd 8352 213e 66d8 b7ba 578f 84be
00000050: f9de 9dbc 7481 41bd cc01 dbba 2c17 82bc
00000060: f819 21b9 c265 ffbd d9ec abbc b0a6 5dbf
00000070: 0dc8 f2bc 0db3 05be 9af1 2dbe 0d6c 59bd
00000080: dc90 dfbb d1ec 043c d33e 8abe 6577 aabe
00000090: 32c6 dbbe fe20 74bd 7b87 74bc 4c2d 90be
000000a0: 9e63 0abd 746d 7ebe 7203 e43e ae74 01be
000000b0: 6c20 98bd 21a0 3bbe ec81 5dbe 6ca2 88bc
000000c0: eb7c 70bc 0abc 13bc 9a24 19bf 53c6 19ba
000000d0: c969 9abd c491 aebb 0b74 67bc 29e5 7cbe
000000e0: 87d8 12bc 3a32 11b9 0d55 a23a 851e a1bb
000000f0: 2c90 d9bd f467 9ebb fba8 1bbc fb63 93bc
00000100: 361d 053e 4aa2 47be 1a0f 0fbe 649b 93bc
00000110: 9c51 01bd c6e7 60be 1dd1 3bbd caff 50bd
00000120: 27aa 26be 12da 18bb a892 e93d 4a0f 86ba
00000130: 0e1d 36b9 ddc6 23bb 9420 8dbb f2e1 90bb
00000140: 0ed9 4dbd bf94 bbbe 5c61 cbbb 9ed8 9ebe
00000150: 6dbf 0abe afcf febd 78cf 85be f259 0cbb
00000160: 4070 1bbd ae91 b7bd e338 42bc 40bd 0fbf
00000170: c321 fabd 8266 81be 18fd dcbc f879 d2be
00000180: 29ca 60be 2619 93bc 7574 94bd 56d7 e0bb
00000190: 2356 943e b6af f0bc bafd 86be fde5 2cbb
000001a0: 39a9 71bd 4f64 063e 494f 02bd 6fc0 d4be
000001b0: fb8d 91be ee0f 71bd 3018 c9be 5e70 e0bb
000001c0: 2a90 f6bd 8c60 37be e834 b1be 3200 07be
000001d0: 8556 4cbe f5e4 ea3c 6641 b33e 84cd adbe
000001e0: af9f 5cbe 1f7e aebc 4176 68be 6f34 633e
000001f0: 7d80 06bc 3c1e 1dbe 9849 5cbe 944a 9abd
-0.016753297 -0.019681392 0.16069438 -0.025770918 -0.09417127 -0.023576183 -0.035039965 -0.008344969
-0.02211986 0.004711656 -0.012695968 -0.13520928 -0.00088080135 -0.28732234 -0.05421189 0.100265
-0.07237815 0.15754132 -0.0014026284 -0.2589061 -0.01927136 -0.047242597 -0.001670891 -0.01588019
-0.0001536383 -0.12470581 -0.020986961 -0.8658247 -0.029636407 -0.13056584 -0.16986695 -0.05308156
-0.0068226885 0.008113102 -0.27001056 -0.33294216 -0.4292465 -0.059601776 -0.014924879 -0.2815956
-0.03378641 -0.2484644 0.4453388 -0.12642166 -0.07428059 -0.18322803 -0.21631593 -0.016679011
-0.01467822 -0.009017 -0.59821475 -0.00058660394 -0.07539708 -0.005327435 -0.014126788 -0.24696793
-0.008962757 -0.00013846988 0.0012384966 -0.0049169683 -0.10623202 -0.0048341695 -0.009500737 -0.01799201
0.12999424 -0.19495502 -0.13970605 -0.018018432 -0.03157197 -0.21963415 -0.045853723 -0.05102519
-0.16275845 -0.002332334 0.114049256 -0.0010227945 -0.00017367696 -0.0024990358 -0.004306862 -0.004421466
-0.050255828 -0.36636922 -0.0062066745 -0.3102464 -0.13549586 -0.12441956 -0.2613485 -0.0021415916
-0.037948847 -0.08963333 -0.011854383 -0.5614815 -0.12213471 -0.2527352 -0.026976153 -0.4110868
-0.21952118 -0.017956328 -0.07248775 -0.0068616075 0.28971967 -0.02938066 -0.26365453 -0.00263822
-0.058999274 0.13124202 -0.031813893 -0.41553065 -0.28428635 -0.058853082 -0.39276266 -0.0068493327
-0.12039216 -0.17907923 -0.34610677 -0.13183668 -0.1995488 0.028673628 0.35010833 -0.33945858
-0.2154529 -0.021300374 -0.2270136 0.2218797 -0.008209345 -0.15343565 -0.21512449 -0.07533756

running_mean f4 [128]
00000000: 0d50 86b9 3665 60bf 66cd cfbc f056 c7bd
00000010: 9807 e73d 6d32 55be f8e0 a1bb a0a6 5930
00000020: 6ea9 23bc 1bc6 29be 7bb3 fdae e71f 693e
00000030: ea96 a6ad 4866 cd3d 012b 163c 0b8b e3bf
00000040: c986 27bc 6e06 17bf 6912 78ac ad12 503e
00000050: 0212 63bc 6631 7ebd c892 0bb6 d3ad 4136
00000060: ee2f da26 8fec 493e 27bd 06ba 0dda 38bd
00000070: 357a fabc 7b9e fe3e 744f f0bd a72f 4abe
00000080: ff0d 343a 7d08 20bd 6636 e73d 38d9 2abe
00000090: ff1a 833f ba75 8eba 9857 b7bd df48 65bf
000000a0: a7a2 4bbb 26af 433e 1e73 a0be 6e8e 1e3d
000000b0: 56ba be3d 2261 9e3e 3acb 2b3e 252a f83b
000000c0: 254a 4fb9 e102 5eba 203f 2d3f b7f2 c3b3
000000d0: ffc4 f43d 1d70 ebb0 359e 663a e8c9 57bf
000000e0: f7e9 33bc c5ef 1e2d 486f d03e 6e05 bbbc
000000f0: 939a 913e a30d 5f37 1429 3bb9 cdec bcba
00000100: d253 033d 51c6 493f 6379 d73d fdab f9bd
00000110: a83e 56bc 66c6 073e 580c eebe 3608 45bf
00000120: daf2 973e c9c9 482b bb93 4ebf 50e7 76b3
00000130: 4df8 7737 af1d fcad 1d84 c937 cfa4 31ba
00000140: 4871 f0bc 9816 543e bb12 49bc 4938 123f
00000150: 063d 81bf 3404 193f 8949 743d 16d0 77b3
00000160: 3a82 34bc 4ca7 3abe a4db 91b4 16f7 b23d
00000170: a8de 913d 0364 1cbe a473 aebe 8b47 7f3e
00000180: 52bb adbe adbf c3ba 75bc d33d d228 1bb2
00000190: 8c73 bfbf 6393 c9be 5a37 c53e 694f a4b2
000001a0: e1b0 2b3d 27c9 143f 2405 da3a c2d4 233f
000001b0: 33e7 b33b d968 b3be ab29 043e c7fe 02bd
000001c0: 6207 313f 787e 9bbe 622b 9e3b f04a 103e
000001d0: 1ddb 983f 2bee 1a3d 6ac9 99bc 3c0b 493f
000001e0: ac52 bb3f 5587 9037 0bd5 ac3d d1d1 17bf
000001f0: 4275 96b5 9860 fa3b 99aa a8bd abac 293d
-0.00025618114 -0.87654436 -0.025366496 -0.09733379 0.11280745 -0.20820017 -0.0049401484 7.918093e-10
-0.009989126 -0.16579477 -1.153699e-10 0.22766076 -1.8939034e-11 0.10029274 0.009165526 -1.7776808
-0.010225006 -0.58994186 -3.525314e-12 0.20319624 -0.013859274 -0.06205883 -2.0798052e-06 2.886042e-06
1.513978e-15 0.19719146 -0.000513988 -0.045129824 -0.030575851 0.49730286 -0.117339045 -0.1974474
0.00068685407 -0.039070595 0.112896726 -0.16684425 1.0242614 -0.0010868825 -0.08952254 -0.8956432
-0.003107229 0.19109783 -0.31337827 0.03871005 0.093128845 0.3093348 0.16776744 0.0075733834
-0.0001976868 -0.0008469057 0.67674446 -9.124545e-08 0.119516365 -1.7130365e-09 0.00087973784 -0.8429246
-0.010981075 9.0345e-12 0.407099 -0.022829738 0.28438243 1.3295011e-05 -0.00017849013 -0.0014413834
0.03206236 0.7881823 0.105211996 -0.12191007 -0.013076462 0.13259277 -0.46493793 -0.76965654
0.2967747 7.1334307e-13 -0.8069417 -5.7486716e-08 1.4780159e-05 -2.8662265e-11 2.4022587e-05 -0.00067765726
-0.029350892 0.20711744 -0.012272532 0.57117134 -1.0096748 0.5977204 0.05964044 -5.7698422e-08
-0.011017377 -0.18227881 -2.7168164e-07 0.08738534 0.071225464 -0.15272526 -0.34072602 0.24929635
-0.33931977 -0.0014934443 0.1033868 -9.031469e-09 -1.4957137 -0.3937026 0.38518792 -1.9128224e-08
0.04191673 0.58119434 0.0016633612 0.6399652 0.0054902076 -0.3504093 0.1290652 -0.031981256
0.6915189 -0.30369925 0.004826949 0.14091086 1.1941868 0.03782479 -0.0187728 0.7853277
1.4634604 1.7229157e-05 0.08439072 -0.5930453 -1.1209997e-06 0.0076409094 -0.08235664 0.041424435

running_var f4 [128]
00000000: e86d 2b34 fbd0 613f 63ae ea3f 5a17 5a3c
00000010: 474c 8b3c 618f b13f 3bc5 1738 31f2 ac21
00000020: 94e5 0c39 db95 4c3f 5bb3 a321 8553 453f
00000030: 3570 8d23 727a 0f3f 8a30 af3a 6824 e240
00000040: c842 2739 03bc 553f 286c 221f b662 3f3f
00000050: 6546 563c cd7d 4d3b 164f b92d 904f fa2d
00000060: a81e 5210 3d04 863f 4b5e ba34 09d5 063f
00000070: f7b2 af3a 87e2 273f 5e02 6a3e 43f6 073e
00000080: b449 a234 8ee6 603c 435c a73e 9092 0a3f
00000090: 7f7b 8c3f ba66 c035 6190 743c c118 8a3f
000000a0: 435e c937 00cf 7c3e b2b6 3040 1ff6 2b3c
000000b0: 644a 7d3c 3cf0 a83d 3d81 193f 7de7 1c38
000000c0: 1821 5733 354b 1b35 40b2 583f 6f23 ce28
000000d0: 1560 b53c 8ad4 0c26 cd51 7435 638b 8640
000000e0: cd7a 8f39 46ad 3e1d 410d b43e be25 3e3a
000000f0: 90aa 0d3e f7df e42f 3329 3633 672f ac37
00000100: 89cf 9c40 b7fc 2f3f 5e47 0e40 b1af b53c
00000110: 652b 3939 1872 b03e f85e 303f 6b46 7e3f
00000120: 7722 ac3d 6353 811e a141 3f3f c6e0 a627
00000130: 8764 0232 9375 881f 19b9 8d33 7dc7 fa34
00000140: 922b 6b3b 6989 973e 1eb0 ab39 98ef e23e
00000150: 23ac 213f 4b3a e43e cd22 ca3e 07ae 7328
00000160: 750c 8c3a f970 773d 60f1 e02b e6e4 383f
00000170: 95c0 db3c f683 b43e 3a29 cb3d f006 f73e
00000180: b056 023e d84e 6237 8114 813c df4f 4c26
00000190: 7290 be3f 7291 c83e 6a3b 373e eef1 5e26
000001a0: 8cec 833b ba35 5840 d14c 0d37 bcd4 333f
000001b0: f03d ab3e 096a 353e ec1c a83f 9bfe 9e3a
000001c0: aab1 d43f 3122 0940 54bc 4f3f ef4d 163d
000001d0: 7438 9b3f 0b47 8c40 955c 5940 a7d9 963f
000001e0: 2fa9 8e3f 7b73 4730 762a 973f d7bd 3d3f
000001f0: ed6d 7e2b a727 ea3e d46f a23d 0692 c93b
1.59656e-07 0.88209504 1.8334469 0.0133112315 0.017004145 1.3871881 3.618489e-05 1.1719281e-18
0.00013436965 0.7991616 1.1092785e-18 0.77080566 1.5334772e-17 0.5604621 0.0013365906 7.066944
0.00015951239 0.8349001 3.43943e-20 0.74759996 0.013078307 0.00313555 2.1067186e-11 2.8457042e-11
4.1438814e-29 1.0470043 3.4713807e-07 0.52668816 0.0013404776 0.6558003 0.22852466 0.13277535
3.0228477e-07 0.0137268435 0.32687578 0.54129887 1.0975188 1.4335012e-06 0.014927001 1.0788804
2.4004961e-05 0.24688339 2.7611508 0.010495692 0.015459631 0.08248946 0.59962827 3.740889e-05
5.0088687e-08 5.785144e-07 0.8464699 2.2885961e-14 0.022140542 4.88603e-16 9.101612e-07 4.204515
0.0002736658 2.523587e-21 0.35166362 0.0007253549 0.13834596 4.1632095e-10 4.2412648e-08 2.0526071e-05
4.900334 0.6874499 2.223106 0.022178503 0.0001765914 0.34462047 0.6889491 0.993262
0.08405011 1.3692894e-20 0.74709517 4.6317955e-15 7.589853e-09 5.779275e-20 6.599493e-08 4.6711276e-07
0.0035884124 0.29597023 0.0003274688 0.4432342 0.63153285 0.44575724 0.39479676 1.3526946e-14
0.0010684865 0.060410473 1.5983152e-12 0.7222427 0.026825229 0.35256928 0.09919973 0.4824748
0.12728381 1.3489007e-05 0.015756847 7.0884963e-16 1.4887831 0.39173466 0.17893758 7.73496e-16
0.0040260013 3.3782792 8.42214e-06 0.7024648 0.33445692 0.1771623 1.3133826 0.0012130322
1.6616719 2.1427119 0.8114674 0.036695417 1.2126603 4.383672 3.3962758 1.1785172
1.1145381 7.2559886e-10 1.1809833 0.741178 9.039148e-13 0.45733377 0.07931486 0.0061514406
